src/model/vae_model.pth (torch, 185931 bytes, 18 tensors)

fc1.weight f4 [128, 70]
-0.023366677 0.08577062 -0.010057575 0.017526178 0.029583232 0.0073467344 0.037824098 0.073710494
-0.1358001 0.05679313 0.039498556 -0.042164262 0.075558476 0.090137966 0.31585026 -0.54969937
0.18934052 -0.40809312 0.046953075 -0.25195974 -0.1521779 -0.19174181 0.499613 -0.3844318
0.079458214 -0.12002121 0.055516593 -0.19185661 0.01848136 0.15872061 0.007026396 0.057839092
0.080733426 0.13678554 -0.07015378 0.21996212 0.21040632 -0.0379889 0.18389949 0.033224873
-0.11963526 0.09753656 0.18589395 0.102812774 -0.22331724 -0.004466369 -0.14487049 -0.117704995
0.19643642 0.22023721 -0.028672734 -0.10201367 -0.18843175 -0.19837607 -0.064157985 0.054716658
0.041343905 -0.0389904 -0.043932386 -0.04645753 0.06462685 -0.07896728 0.08334015 -0.031583503
0.026700066 -0.039511614 0.0800384 -0.10455656 0.0351525 -0.023324287 -0.04032709 -0.052857187
-0.13468674 -0.027267667 0.024476625 -0.036934093 0.055107977 -0.007838522 0.12752493 0.08476267
0.042170197 0.019407671 0.042689204 0.044833135 0.21467905 0.0020982353 -0.03499221 0.0021621413
0.10554772 0.04421861 -0.1537634 -0.015999714 -0.17815538 -0.053348318 -0.08072453 0.059882205
0.12592186 -0.08538813 0.068129405 0.0055328268 -0.064017475 -0.056579147 -0.019697027 0.053360596
-0.031903297 -0.017951183 -0.0046454323 0.04207593 -0.01504432 -0.04008374 0.014220332 0.020714488
0.007942441 0.045792546 -0.00032385922 -0.004033253 0.07165473 0.05741762 0.009512664 -0.016720396
-0.00412648 -0.037512552 -0.021614995 -0.045720123 0.011682054 -0.07917258 0.13997829 -0.085724495
-0.2957707 0.26081368 -0.35711926 0.1762057 0.19051062 -0.80644876 0.27575928 0.25519565
-0.123283796 -0.5348095 -0.2983008 0.43489727 0.02562961 0.04591334 -0.037903957 -0.11960763
-0.011457779 0.06276015 0.023710603 0.02681818 -0.019310072 0.052648086 0.027697206 0.0024460263
0.0065993597 0.02470386 0.13642491 -0.022853298 0.061947405 -0.088108994 -0.014562192 0.04391722
-0.07276779 0.09709165 -0.13189252 0.00034314394 -0.027179783 0.0676885 0.019151041 0.017310746
-0.24423558 -0.16963445 0.46911377 -0.30021125 0.50413674 0.43547344 0.08492916 0.61399204
-0.012742518 -0.12337133 -0.087958574 -0.111571714 -0.5971876 -0.41102287 -0.079337545 0.13129455
0.061726708 0.053775057 -0.04083317 -0.12075956 0.031672824 -0.08055 0.016322462 -0.11109435
0.0036550644 -0.046188716 -0.0897249 0.031251248 0.06182513 -0.041235223 -0.10361194 0.21787643
0.09739805 0.12650968 -0.06901623 -0.101573005 0.0017400072 -0.06847824 0.039561056 -0.038775757
0.025763292 -0.23828076 0.26245445 0.6126185 -0.288774 -0.26312694 -0.40857196 -0.5790517
0.6130914 0.038716324 -0.39065644 0.57063276 -0.59508175 -0.46238303 -0.08330595 -0.4276211
-0.0012665396 0.008679973 0.1268248 -0.011308912 0.026763776 0.0229319 -0.025611252 0.044221986
0.024912186 -0.040769596 -0.04480764 0.060918447 -0.01553859 -0.02544036 -0.00043560792 0.089173615
0.016409213 -0.028341968 -0.025027756 -0.04418946 0.040868916 0.024796953 -0.052564442 0.012475631
0.110765666 0.0073728184 -0.057331257 -0.014709896 -0.07721715 0.04078414 0.01901634 -0.011803572
00000000: 796b bfbc 82a8 af3d 87c8 24bc 0f93 8f3c
00000010: 8958 f23c e0bc f03b 71ed 1a3d 87f5 963d
00000020: 2e0f 0bbe ea9f 683d 3dc9 213d 6fb4 2cbd
00000030: 67be 9a3d 419a b83d 20b7 a13e 19b9 0cbf
00000040: 7be2 413e 95f1 d0be de51 403d de00 81be
00000050: 86d4 1bbe f757 44be 46cd ff3e 3fd4 c4be
00000060: fdba a23d aecd f5bd 5e65 633d 0f76 44be
00000070: 3966 973c a887 223e af3d e63b afe8 6c3d
00000080: 9157 a53d 8211 0c3e c9ac 8fbd c03d 613e
00000090: c174 573e 409a 1bbd 2650 3c3e ce16 083d
000000a0: 5503 f5bd 3fc1 c73d fc5a 3e3e 818f d23d
000000b0: 46ad 64be 9e5a 92bb ee58 14be 510f f1bd
000000c0: a126 493e dd85 613e 15e3 eabc 8bec d0bd
000000d0: 41f4 40be 1923 4bbe 4365 83bd 931e 603d
000000e0: 3a58 293d 66b4 1fbd 72f2 33bd 404a 3ebd
000000f0: 155b 843d 99b9 a1bd 3eae aa3d b45d 01bd
00000100: 19ba da3c eed6 21bd 2ceb a33d c021 d6bd
00000110: 11fc 0f3d 9312 bfbc 052e 25bd c780 58bd
00000120: 52eb 09be 7160 dfbc 3483 c83c 3448 17bd
00000130: e7b8 613d 256d 00bc e595 023e 0d98 ad3d
00000140: a8ba 2c3d d6fc 9e3c e0da 2e3d f3a2 373d
00000150: d3d4 5b3e 8c82 093b fe53 0fbd b6b2 0d3b
00000160: 6729 d83d 931e 353d 2774 1dbe d511 83bc
00000170: 5d6e 36be c483 5abd e752 a5bd 0b47 753d
00000180: a9f1 003e f9df aebd 6e87 8b3d b74c b53b
00000190: 981b 83bd 89bf 67bd a95b a1bc a490 5a3d
000001a0: 08ad 02bd 5c0e 93bc b638 98bb cf57 2c3d
000001b0: 747c 76bc d92e 24bd 65fc 683c 6eb1 a93c
000001c0: 0321 023c f790 3b3d a6cb a9b9 6129 84bb
000001d0: b7bf 923d bd2e 6b3d 01db 1b3c 36f9 88bc
000001e0: 6c37 87bb c3a6 19bd ee11 b1bc 0645 3bbd
000001f0: 1666 3f3c 3c25 a2bd 7856 0f3e 5390 afbd
00000200: 426f 97be 5f89 853e 56d8 b6be 446f 343e
00000210: 3715 433e 6d73 4ebf 5230 8d3e 01a9 823e
00000220: 377c fcbd 47e9 08bf e2ba 98be dbaa de3e
00000230: 30f5 d13c a00f 3c3d 2e41 1bbd d8f4 f4bd
00000240: 69b9 3bbc 6588 803d bd3c c23c cdb1 db3c
00000250: 2830 9ebc 85a5 573d 40e5 e23c 834d 203b
00000260: 713f d83b c05f ca3c f9b2 0b3e d736 bbbc
00000270: 90bc 7d3d 7d72 b4bd 4396 6ebc 8be2 333d
00000280: 4707 95bd fdd7 c63d d50e 07be 00e8 b339
00000290: 23a8 debc 45a0 8a3d a5e2 9c3c 44cf 8d3c
000002a0: e418 7abe a7b4 2dbe ae2f f03e 4ab5 99be
000002b0: 1b0f 013f 60f6 de3e 57ef ad3d 952e 1d3f
000002c0: ffc5 50bc 1caa fcbd a023 b4bd b67f e4bd
000002d0: 49e1 18bf 9771 d2be b97b a2bd 1472 063e
000002e0: 25d5 7c3d 3c43 5c3d af40 27bd ca50 f7bd
000002f0: 5dbb 013d 66f7 a4bd afb6 853c 6f85 e3bd
00000300: ce89 6f3b 6130 3dbd b0c1 b7bd 4f01 003d
00000310: 593c 7d3d 44e6 28bd 7f32 d4bd 001b 5f3e
00000320: a178 c73d c18b 013e 6258 8dbd 8205 d0bd
00000330: f410 e43a 523e 8cbd c60a 223d 54d3 1ebd
00000340: 8a0d d33c dfff 73be 6e60 863e 91d4 1c3f
00000350: 30da 93be 93b8 86be 5830 d1be bb3c 14bf
00000360: 8ff3 1c3f 0295 1e3d 1f04 c8be fd14 123f
00000370: 4757 18bf 78bd ecbe 4f9c aabd 27f1 dabe
00000380: 0402 a6ba 7236 0e3c 5cde 013e 0449 39bc
00000390: b53f db3c aedb bb3c b0ce d1bc 1d22 353d
000003a0: a414 cc3c 05fe 26bd 3788 37bd 9f85 793d
000003b0: 9295 7ebc 4d68 d0bc 4e62 e4b9 a8a0 b63d
000003c0: 9d6c 863c 6a2d e8bc 0207 cdbc 0200 35bd
000003d0: 2a66 273d fb22 cb3c d04d 57bd 9766 4c3c
000003e0: 1cd9 e23d af97 f13b 2ed4 6abd c701 71bc
000003f0: 0624 9ebd 450d 273d 28c8 9b3c c563 41bc

fc1.bias f4 [128]
-0.47246763 -1.2078822 -1.1906004 -0.36867335 -0.081832856 0.0491621 0.5709432 -1.3340065
0.71241456 0.14753704 -0.3259352 -0.28060657 0.7369836 -0.28716028 0.37762234 0.5765092
-0.26656085 -0.29685742 -0.64335954 0.26443297 -0.18989179 -0.66514015 0.009944209 -0.073007934
0.31858107 0.572501 0.35280803 0.53588945 0.27643284 0.5805045 0.24613923 0.28188142
0.8178799 0.09453877 -0.10309423 0.6320507 -0.40516722 -0.20431449 -0.035019446 0.20037757
0.39588982 -0.3300436 0.07940418 0.8447847 0.35116816 -0.6921803 0.89401454 0.3854281
0.100897655 -1.2558372 -0.09370127 0.5825122 0.5319829 -0.5791826 -0.70336455 -0.09735929
0.13971487 -0.16059543 0.098161004 -0.29679254 0.6455137 -0.20006774 -0.19933654 -0.57759863
0.70396066 0.04357506 -0.09049481 -0.03731159 0.67103386 1.0450077 -0.09720812 0.086460546
-0.18112059 -0.2540928 0.7457833 0.26936 0.2756038 -1.645951 -1.1567942 0.30122274
0.99186456 0.26013687 0.13957414 0.39592758 0.13069971 -0.049128033 0.6008734 -0.25172737
-1.0190276 -0.91326076 0.8684799 0.13722666 0.608113 0.1486766 0.24040167 0.45198956
-0.32937172 -0.14724854 0.3268449 0.48917863 0.13602796 0.029128551 -0.9165477 0.24337728
-0.82841605 0.2924604 -0.15505363 0.11735301 -0.20192176 -1.3992395 0.027057568 0.84959906
0.785758 -0.16813783 -0.40137208 -0.13811369 0.8307206 1.1631817 0.14783187 -0.01421993
-0.279361 -1.4974022 1.0105441 0.20156716 -0.35582438 -0.14472914 0.59026563 0.31635144
00000000: 47e7 f1be e29b 9abf 9865 98bf c1c2 bcbe
00000010: fc97 a7bd 335e 493d 5529 123f bac0 aabf
00000020: cd60 363f f313 173e fbe0 a6be aaab 8fbe
00000030: f5aa 3c3f ac06 93be b757 c13e 1b96 133f
00000040: aa7a 88be b2fd 97be 36b3 24bf c263 873e
00000050: fe72 42be a046 2abf 09ed 223c 2f85 95bd
00000060: 0f1d a33e 6d8f 123f 41a3 b43e 0d30 093f
00000070: 9b88 8d3e f19b 143f ec0b 7c3e c352 903e
00000080: 9460 513f 8b9d c13d 1123 d3bd 13ce 213f
00000090: 1472 cfbe d137 51be 8d70 0fbd c72f 4d3e
000000a0: 12b2 ca3e 7afb a8be a99e a23d cf43 583f
000000b0: 50cc b33e ba32 31bf 23de 643f d556 c53e
000000c0: 6ea3 ce3d 46bf a0bf 74e6 bfbd 851f 153f
000000d0: 0830 083f 5045 14bf b30f 34bf 4f64 c7bd
000000e0: 6a11 0f3e 2173 24be a308 c93d 31f5 97be
000000f0: 6340 253f 8fde 4cbe e11e 4cbe 81dd 13bf
00000100: c436 343f c37b 323d 5855 b9bd 0ad4 18bd
00000110: e0c8 2b3f d0c2 853f 0d15 c7bd 3a12 b13d
00000120: ad77 39be 7418 82be a8eb 3e3f 8ee9 893e
00000130: f11b 8d3e 86ae d2bf d511 94bf de39 9a3e
00000140: d6ea 7d3f a930 853e 86ec 0e3e 05b7 ca3e
00000150: 25d6 053e 7a3a 49bd d7d2 193f 69e2 80be
00000160: 7f6f 82bf 75cb 69bf b354 5e3f 2585 0c3e
00000170: 4bad 1b3f ae3e 183e db2b 763e 2d6b e73e
00000180: 69a3 a8be 52c8 16be 3758 a73e 9f75 fa3e
00000190: ea4a 0b3e 009f ee3c dfa2 6abf e537 793e
000001a0: 1313 54bf 5fbd 953e 61c6 1ebe c656 f03d
000001b0: 94c4 4ebe 481a b3bf d5a7 dd3c 537f 593f
000001c0: 7027 493f 532c 2cbe a480 cdbe ad6d 0dbe
000001d0: 1baa 543f 23e3 943f 3d61 173e b6fa 68bc
000001e0: 6808 8fbe e0aa bfbf 8259 813f 9f67 4e3e
000001f0: 9d2e b6be e033 14be a61b 173f d1f8 a13e

bn1.weight f4 [128]
1.0 1.0 1.0 1.0 1.0 1.0 1.0 1.0
1.0 1.0 1.0 1.0 1.0 1.0 1.0 1.0
1.0 1.0 1.0 1.0 1.0 1.0 1.0 1.0
1.0 1.0 1.0 1.0 1.0 1.0 1.0 1.0
1.0 1.0 1.0 1.0 1.0 1.0 1.0 1.0
1.0 1.0 1.0 1.0 1.0 1.0 1.0 1.0
1.0 1.0 1.0 1.0 1.0 1.0 1.0 1.0
1.0 1.0 1.0 1.0 1.0 1.0 1.0 1.0
1.0 1.0 1.0 1.0 1.0 1.0 1.0 1.0
1.0 1.0 1.0 1.0 1.0 1.0 1.0 1.0
1.0 1.0 1.0 1.0 1.0 1.0 1.0 1.0
1.0 1.0 1.0 1.0 1.0 1.0 1.0 1.0
1.0 1.0 1.0 1.0 1.0 1.0 1.0 1.0
1.0 1.0 1.0 1.0 1.0 1.0 1.0 1.0
1.0 1.0 1.0 1.0 1.0 1.0 1.0 1.0
1.0 1.0 1.0 1.0 1.0 1.0 1.0 1.0
00000000: 0000 803f 0000 803f 0000 803f 0000 803f
00000010: 0000 803f 0000 803f 0000 803f 0000 803f
00000020: 0000 803f 0000 803f 0000 803f 0000 803f
00000030: 0000 803f 0000 803f 0000 803f 0000 803f
00000040: 0000 803f 0000 803f 0000 803f 0000 803f
00000050: 0000 803f 0000 803f 0000 803f 0000 803f
00000060: 0000 803f 0000 803f 0000 803f 0000 803f
00000070: 0000 803f 0000 803f 0000 803f 0000 803f
00000080: 0000 803f 0000 803f 0000 803f 0000 803f
00000090: 0000 803f 0000 803f 0000 803f 0000 803f
000000a0: 0000 803f 0000 803f 0000 803f 0000 803f
000000b0: 0000 803f 0000 803f 0000 803f 0000 803f
000000c0: 0000 803f 0000 803f 0000 803f 0000 803f
000000d0: 0000 803f 0000 803f 0000 803f 0000 803f
000000e0: 0000 803f 0000 803f 0000 803f 0000 803f
000000f0: 0000 803f 0000 803f 0000 803f 0000 803f
00000100: 0000 803f 0000 803f 0000 803f 0000 803f
00000110: 0000 803f 0000 803f 0000 803f 0000 803f
00000120: 0000 803f 0000 803f 0000 803f 0000 803f
00000130: 0000 803f 0000 803f 0000 803f 0000 803f
00000140: 0000 803f 0000 803f 0000 803f 0000 803f
00000150: 0000 803f 0000 803f 0000 803f 0000 803f
00000160: 0000 803f 0000 803f 0000 803f 0000 803f
00000170: 0000 803f 0000 803f 0000 803f 0000 803f
00000180: 0000 803f 0000 803f 0000 803f 0000 803f
00000190: 0000 803f 0000 803f 0000 803f 0000 803f
000001a0: 0000 803f 0000 803f 0000 803f 0000 803f
000001b0: 0000 803f 0000 803f 0000 803f 0000 803f
000001c0: 0000 803f 0000 803f 0000 803f 0000 803f
000001d0: 0000 803f 0000 803f 0000 803f 0000 803f
000001e0: 0000 803f 0000 803f 0000 803f 0000 803f
000001f0: 0000 803f 0000 803f 0000 803f 0000 803f

bn1.bias f4 [128]
0.0 0.0 0.0 0.0 0.0 0.0 0.0 0.0
0.0 0.0 0.0 0.0 0.0 0.0 0.0 0.0
0.0 0.0 0.0 0.0 0.0 0.0 0.0 0.0
0.0 0.0 0.0 0.0 0.0 0.0 0.0 0.0
0.0 0.0 0.0 0.0 0.0 0.0 0.0 0.0
0.0 0.0 0.0 0.0 0.0 0.0 0.0 0.0
0.0 0.0 0.0 0.0 0.0 0.0 0.0 0.0
0.0 0.0 0.0 0.0 0.0 0.0 0.0 0.0
0.0 0.0 0.0 0.0 0.0 0.0 0.0 0.0
0.0 0.0 0.0 0.0 0.0 0.0 0.0 0.0
0.0 0.0 0.0 0.0 0.0 0.0 0.0 0.0
0.0 0.0 0.0 0.0 0.0 0.0 0.0 0.0
0.0 0.0 0.0 0.0 0.0 0.0 0.0 0.0
0.0 0.0 0.0 0.0 0.0 0.0 0.0 0.0
0.0 0.0 0.0 0.0 0.0 0.0 0.0 0.0
0.0 0.0 0.0 0.0 0.0 0.0 0.0 0.0
00000000: 0000 0000 0000 0000 0000 0000 0000 0000
00000010: 0000 0000 0000 0000 0000 0000 0000 0000
00000020: 0000 0000 0000 0000 0000 0000 0000 0000
00000030: 0000 0000 0000 0000 0000 0000 0000 0000
00000040: 0000 0000 0000 0000 0000 0000 0000 0000
00000050: 0000 0000 0000 0000 0000 0000 0000 0000
00000060: 0000 0000 0000 0000 0000 0000 0000 0000
00000070: 0000 0000 0000 0000 0000 0000 0000 0000
00000080: 0000 0000 0000 0000 0000 0000 0000 0000
00000090: 0000 0000 0000 0000 0000 0000 0000 0000
000000a0: 0000 0000 0000 0000 0000 0000 0000 0000
000000b0: 0000 0000 0000 0000 0000 0000 0000 0000
000000c0: 0000 0000 0000 0000 0000 0000 0000 0000
000000d0: 0000 0000 0000 0000 0000 0000 0000 0000
000000e0: 0000 0000 0000 0000 0000 0000 0000 0000
000000f0: 0000 0000 0000 0000 0000 0000 0000 0000
00000100: 0000 0000 0000 0000 0000 0000 0000 0000
00000110: 0000 0000 0000 0000 0000 0000 0000 0000
00000120: 0000 0000 0000 0000 0000 0000 0000 0000
00000130: 0000 0000 0000 0000 0000 0000 0000 0000
00000140: 0000 0000 0000 0000 0000 0000 0000 0000
00000150: 0000 0000 0000 0000 0000 0000 0000 0000
00000160: 0000 0000 0000 0000 0000 0000 0000 0000
00000170: 0000 0000 0000 0000 0000 0000 0000 0000
00000180: 0000 0000 0000 0000 0000 0000 0000 0000
00000190: 0000 0000 0000 0000 0000 0000 0000 0000
000001a0: 0000 0000 0000 0000 0000 0000 0000 0000
000001b0: 0000 0000 0000 0000 0000 0000 0000 0000
000001c0: 0000 0000 0000 0000 0000 0000 0000 0000
000001d0: 0000 0000 0000 0000 0000 0000 0000 0000
000001e0: 0000 0000 0000 0000 0000 0000 0000 0000
000001f0: 0000 0000 0000 0000 0000 0000 0000 0000

bn1.running_mean f4 [128]
0.0 0.0 0.0 0.0 0.0 0.0 0.0 0.0
0.0 0.0 0.0 0.0 0.0 0.0 0.0 0.0
0.0 0.0 0.0 0.0 0.0 0.0 0.0 0.0
0.0 0.0 0.0 0.0 0.0 0.0 0.0 0.0
0.0 0.0 0.0 0.0 0.0 0.0 0.0 0.0
0.0 0.0 0.0 0.0 0.0 0.0 0.0 0.0
0.0 0.0 0.0 0.0 0.0 0.0 0.0 0.0
0.0 0.0 0.0 0.0 0.0 0.0 0.0 0.0
0.0 0.0 0.0 0.0 0.0 0.0 0.0 0.0
0.0 0.0 0.0 0.0 0.0 0.0 0.0 0.0
0.0 0.0 0.0 0.0 0.0 0.0 0.0 0.0
0.0 0.0 0.0 0.0 0.0 0.0 0.0 0.0
0.0 0.0 0.0 0.0 0.0 0.0 0.0 0.0
0.0 0.0 0.0 0.0 0.0 0.0 0.0 0.0
0.0 0.0 0.0 0.0 0.0 0.0 0.0 0.0
0.0 0.0 0.0 0.0 0.0 0.0 0.0 0.0
00000000: 0000 0000 0000 0000 0000 0000 0000 0000
00000010: 0000 0000 0000 0000 0000 0000 0000 0000
00000020: 0000 0000 0000 0000 0000 0000 0000 0000
00000030: 0000 0000 0000 0000 0000 0000 0000 0000
00000040: 0000 0000 0000 0000 0000 0000 0000 0000
00000050: 0000 0000 0000 0000 0000 0000 0000 0000
00000060: 0000 0000 0000 0000 0000 0000 0000 0000
00000070: 0000 0000 0000 0000 0000 0000 0000 0000
00000080: 0000 0000 0000 0000 0000 0000 0000 0000
00000090: 0000 0000 0000 0000 0000 0000 0000 0000
000000a0: 0000 0000 0000 0000 0000 0000 0000 0000
000000b0: 0000 0000 0000 0000 0000 0000 0000 0000
000000c0: 0000 0000 0000 0000 0000 0000 0000 0000
000000d0: 0000 0000 0000 0000 0000 0000 0000 0000
000000e0: 0000 0000 0000 0000 0000 0000 0000 0000
000000f0: 0000 0000 0000 0000 0000 0000 0000 0000
00000100: 0000 0000 0000 0000 0000 0000 0000 0000
00000110: 0000 0000 0000 0000 0000 0000 0000 0000
00000120: 0000 0000 0000 0000 0000 0000 0000 0000
00000130: 0000 0000 0000 0000 0000 0000 0000 0000
00000140: 0000 0000 0000 0000 0000 0000 0000 0000
00000150: 0000 0000 0000 0000 0000 0000 0000 0000
00000160: 0000 0000 0000 0000 0000 0000 0000 0000
00000170: 0000 0000 0000 0000 0000 0000 0000 0000
00000180: 0000 0000 0000 0000 0000 0000 0000 0000
00000190: 0000 0000 0000 0000 0000 0000 0000 0000
000001a0: 0000 0000 0000 0000 0000 0000 0000 0000
000001b0: 0000 0000 0000 0000 0000 0000 0000 0000
000001c0: 0000 0000 0000 0000 0000 0000 0000 0000
000001d0: 0000 0000 0000 0000 0000 0000 0000 0000
000001e0: 0000 0000 0000 0000 0000 0000 0000 0000
000001f0: 0000 0000 0000 0000 0000 0000 0000 0000

bn1.running_var f4 [128]
1.0 1.0 1.0 1.0 1.0 1.0 1.0 1.0
1.0 1.0 1.0 1.0 1.0 1.0 1.0 1.0
1.0 1.0 1.0 1.0 1.0 1.0 1.0 1.0
1.0 1.0 1.0 1.0 1.0 1.0 1.0 1.0
1.0 1.0 1.0 1.0 1.0 1.0 1.0 1.0
1.0 1.0 1.0 1.0 1.0 1.0 1.0 1.0
1.0 1.0 1.0 1.0 1.0 1.0 1.0 1.0
1.0 1.0 1.0 1.0 1.0 1.0 1.0 1.0
1.0 1.0 1.0 1.0 1.0 1.0 1.0 1.0
1.0 1.0 1.0 1.0 1.0 1.0 1.0 1.0
1.0 1.0 1.0 1.0 1.0 1.0 1.0 1.0
1.0 1.0 1.0 1.0 1.0 1.0 1.0 1.0
1.0 1.0 1.0 1.0 1.0 1.0 1.0 1.0
1.0 1.0 1.0 1.0 1.0 1.0 1.0 1.0
1.0 1.0 1.0 1.0 1.0 1.0 1.0 1.0
1.0 1.0 1.0 1.0 1.0 1.0 1.0 1.0
00000000: 0000 803f 0000 803f 0000 803f 0000 803f
00000010: 0000 803f 0000 803f 0000 803f 0000 803f
00000020: 0000 803f 0000 803f 0000 803f 0000 803f
00000030: 0000 803f 0000 803f 0000 803f 0000 803f
00000040: 0000 803f 0000 803f 0000 803f 0000 803f
00000050: 0000 803f 0000 803f 0000 803f 0000 803f
00000060: 0000 803f 0000 803f 0000 803f 0000 803f
00000070: 0000 803f 0000 803f 0000 803f 0000 803f
00000080: 0000 803f 0000 803f 0000 803f 0000 803f
00000090: 0000 803f 0000 803f 0000 803f 0000 803f
000000a0: 0000 803f 0000 803f 0000 803f 0000 803f
000000b0: 0000 803f 0000 803f 0000 803f 0000 803f
000000c0: 0000 803f 0000 803f 0000 803f 0000 803f
000000d0: 0000 803f 0000 803f 0000 803f 0000 803f
000000e0: 0000 803f 0000 803f 0000 803f 0000 803f
000000f0: 0000 803f 0000 803f 0000 803f 0000 803f
00000100: 0000 803f 0000 803f 0000 803f 0000 803f
00000110: 0000 803f 0000 803f 0000 803f 0000 803f
00000120: 0000 803f 0000 803f 0000 803f 0000 803f
00000130: 0000 803f 0000 803f 0000 803f 0000 803f
00000140: 0000 803f 0000 803f 0000 803f 0000 803f
00000150: 0000 803f 0000 803f 0000 803f 0000 803f
00000160: 0000 803f 0000 803f 0000 803f 0000 803f
00000170: 0000 803f 0000 803f 0000 803f 0000 803f
00000180: 0000 803f 0000 803f 0000 803f 0000 803f
00000190: 0000 803f 0000 803f 0000 803f 0000 803f
000001a0: 0000 803f 0000 803f 0000 803f 0000 803f
000001b0: 0000 803f 0000 803f 0000 803f 0000 803f
000001c0: 0000 803f 0000 803f 0000 803f 0000 803f
000001d0: 0000 803f 0000 803f 0000 803f 0000 803f
000001e0: 0000 803f 0000 803f 0000 803f 0000 803f
000001f0: 0000 803f 0000 803f 0000 803f 0000 803f

fc2.weight f4 [64, 128]
-0.048473004 -0.016218737 -0.78609794 0.028306197 0.18174593 0.3330305 0.2113865 -0.44023377
-0.5909047 -0.084782265 -0.050505344 -0.12288669 0.1074257 0.070864305 0.033971418 0.013890853
-0.023099164 -0.00043502433 -0.044800688 -0.04664956 -0.021602077 0.009883856 -0.048315108 0.02354961
-0.010147705 -0.0019973284 0.13872935 -0.138874 0.11284077 -0.18494152 -0.0027654972 0.05585664
-0.09878871 -0.12556358 0.08503368 0.13598986 0.0019371632 0.078177035 0.031507365 -0.0096794795
-0.21002106 -0.008763525 -0.20111026 0.6693037 -0.22976919 -0.0019407114 0.23376265 -0.056038294
-0.053655718 0.0025980754 0.07282891 0.07315119 -0.03307276 -0.031531874 0.1507149 0.050912872
0.01366527 -0.6514102 -0.09204339 -0.1777352 -0.191103 0.056576256 0.009963681 0.032556534
-0.051923275 0.17172436 -0.009474268 -0.13765614 -0.33310875 0.36666006 0.12814422 -0.061552215
-0.11337148 -0.0029856255 -0.14209734 0.0007627164 -0.0021007804 0.6586526 0.44962266 0.10876867
0.11292878 0.20084694 0.013505059 0.055725474 -0.12248183 -0.34849927 0.18327919 -0.02484879
0.032093212 0.25451925 -0.005399169 -0.06125069 0.15084596 -0.7775509 0.03234595 0.054671224
0.00030351593 0.05067832 -0.27752098 -0.007539217 0.32172227 -0.035672247 0.021532645 -0.05105903
-0.066773124 0.0011074187 -0.29166836 0.048619322 0.45037952 -0.027236762 0.14495693 -0.22832975
-0.017895034 0.07503159 0.19378914 -0.029852947 0.29324043 -0.102033906 0.13486207 0.047487885
-0.000644517 0.014488144 0.04103292 -0.07950607 0.2549573 -0.016335972 -0.027385956 0.02780409
-0.0034427033 -0.02000479 0.0066872453 0.0019409591 -0.010715472 0.20650177 0.14664331 0.0012950003
-0.14444128 0.07761271 0.12454257 0.027266566 0.13568568 0.021984104 -0.01738943 0.008433146
0.032004796 0.53645545 -0.020147236 0.07428794 -0.011039107 0.03543918 -0.013862421 0.039956775
0.15628715 0.05107835 -0.03608366 0.12794761 0.085267864 -0.03555125 0.11070663 0.0032995278
0.2775975 0.017068712 -0.037857305 0.04307282 0.078000255 0.18054514 0.16298795 -0.11591854
0.06843866 0.072614394 0.1781681 0.054558232 0.12630677 0.0952282 0.24032736 0.05759892
-0.014071031 0.16917038 0.10935283 0.07937899 0.084453695 -0.035950206 0.054392006 0.08435562
-0.06458013 0.111182 0.13947837 0.022438962 -0.017044108 0.061488725 0.19845638 0.058370728
-0.068135194 -0.01016647 0.010383575 0.04553385 0.12173623 -0.24651818 0.0924821 -0.0287157
0.036340453 0.019271856 0.041519906 0.012113963 0.085350715 0.121020675 0.24391404 0.026329529
0.12929964 0.106515035 -0.049595565 0.112160645 0.013325102 -0.11786541 0.009509693 0.060609087
0.084481336 0.10104731 0.027578609 0.6548048 0.017368598 -0.08266522 0.040769465 0.036900878
0.035831742 -0.71464646 -0.052770954 0.07734716 0.117034845 -0.08785882 0.056442376 0.0880541
0.10311889 0.085975654 -0.010311725 0.033154212 0.16732338 0.084908225 0.087030575 0.031387072
0.012163109 0.004468176 -0.050810058 0.14238149 0.09661272 0.1981502 0.01619232 0.12518667
-0.10781695 0.079906784 -0.0048183277 -0.058850124 0.14153513 0.14361571 0.1394855 -0.49381533
00000000: a18b 46bd 28dd 84bc b73d 49bf 66e2 e73c
00000010: 9b1b 3a3e f982 aa3e b475 583e 5266 e1be
00000020: 8845 17bf 53a2 adbd b1de 4ebd 04ac fbbd
00000030: 0102 dc3d 4e21 913d 9d25 0b3d 7696 633c
00000040: 753a bdbc fa13 e4b9 ed80 37bd 9c13 3fbd
00000050: d7f6 b0bc e6ef 213c 10e6 45bd 1deb c03c
00000060: 8f42 26bc 9ce5 02bb 110f 0e3e fc34 0ebe
00000070: 1019 e73d 4f61 3dbe 583d 35bb efc9 643d
00000080: bc51 cabd bd93 00be 2326 ae3d ed40 0b3e
00000090: 69e8 fd3a 481b a03d de0d 013d ae96 1ebc
000000a0: c30f 57be e394 0fbc d9ef 4dbe 7d57 2b3f
000000b0: 9d48 6bbe 785f feba 7a5f 6f3e 6988 65bd
000000c0: 19c6 5bbd 7944 2a3b 5327 953d 4bd0 953d
000000d0: 4d77 07bd 9127 01bd 0255 1a3e 048a 503d
000000e0: 4ce4 5f3c d2c2 26bf 3f81 bcbd 3700 36be
000000f0: 81b0 43be 81bc 673d b53e 233c 005a 053d
00000100: 80ad 54bd 83d8 2f3e f639 1bbc bbf5 0cbe
00000110: 3b8d aabe deba bb3e 3d38 033e 2d1e 7cbd
00000120: 4e2f e8bd 7caa 43bb f781 11be 08f1 473a
00000130: 3fad 09bb 759d 283f f134 e63e 1cc2 de3d
00000140: 3447 e73d d2aa 4d3e 5344 5d3c 6540 643d
00000150: c1d7 fabd 7f6e b2be 8aad 3b3e b18f cbbc
00000160: 2c74 033d 5950 823e 83eb b0bb 01e2 7abd
00000170: 5d77 1a3e 930d 47bf 307d 043d efee 5f3d
00000180: 3821 9f39 1294 4f3d 3b17 8ebe 890b f7bb
00000190: c8b8 a43e 101d 12bd 3b65 b03c 4623 51bd
000001a0: 59c0 88bd ce26 913a 8e55 95be 0e25 473d
000001b0: 2598 e63e a11f dfbc 976f 143e 46cf 69be
000001c0: 9b98 92bc 2aaa 993d a970 463e 2b8e f4bc
000001d0: 9c23 963e 27f7 d0bd 4819 0a3e a882 423d
000001e0: cef4 28ba ae5f 6d3c 2312 283d 14d4 a2bd
000001f0: c389 823e 04d3 85bc 8358 e0bc 67c5 e33c
00000200: fa9e 61bb 16e1 a3bc ae20 db3b c867 fe3a
00000210: f28f 2fbc 3375 533e aa29 163e 00bd a93a
00000220: 6ae8 13be 6af3 9e3d 2d10 ff3d 225e df3c
00000230: 30f1 0a3e 0218 b43c 4774 8ebc 2e2b 0a3c
00000240: 7617 033d 2555 093f d10b a5bc 4724 983d
00000250: 5fdd 34bc ac28 113d 351f 63bc b7a9 233d
00000260: bd09 203e 8837 513d 76cc 13bd b304 033e
00000270: eba0 ae3d 309e 11bd 28ba e23d e43c 583b
00000280: 4221 8e3e afd3 8b3c 4310 1bbd 206d 303d
00000290: 99be 9f3d d3e0 383e 50e6 263e b366 edbd
000002a0: 9129 8c3d dbb6 943d b371 363e 7478 5f3d
000002b0: 9056 013e 0107 c33d 6018 763e d8ec 6b3d
000002c0: 2e8a 66bc 003b 2d3e 60f4 df3d 7491 a23d
000002d0: 0ff6 ac3d 8640 13bd 27ca 5e3d a4c2 ac3d
000002e0: 9642 84bd 63b3 e33d 6bd3 0e3e ead1 b73c
000002f0: 16a0 8bbc 9adb 7b3d 2638 4b3e 2516 6f3d
00000300: 778a 8bbd 4491 26bc df1f 2a3c b481 3a3d
00000310: d850 f93d 436f 7cbe 4167 bd3d 303d ebbc
00000320: bad9 143d 03e0 9d3c c710 2a3d a579 463c
00000330: 5bcc ae3d b0d9 f73d 9ac4 793e 06b1 d73c
00000340: 2067 043e 8e24 da3d b824 4bbd 7bb4 e53d
00000350: 8751 5a3c 6c63 f1bd 8bce 1b3c 3c41 783d
00000360: 8d04 ad3d e4f1 ce3d 89ec e13c 4aa1 273f
00000370: 9748 8e3c 624c a9bd e2fd 263d 6025 173d
00000380: 4ec4 123d 12f3 36bf 5b26 58bd 3068 9e3d
00000390: f7af ef3d 53ef b3bd 1f30 673d b555 b43d
000003a0: ff2f d33d 0114 b03d 82f2 28bc b6cc 073d
000003b0: d256 2b3e 5de4 ad3d 163d b23d bb8f 003d
000003c0: c747 473c c769 923b 351e 50bd 74cc 113e
000003d0: e4dc c53d e3e7 4a3e c2a5 843c ef30 003e
000003e0: 22cf dcbd 2ba6 a33d 10e3 9dbb d40c 71bd
000003f0: 96ee 103e ff0f 133e 49d5 0e3e 5dd5 fcbe

fc2.bias f4 [64]
-0.047246948 0.2436562 0.6032154 0.025164783 0.086871274 0.16090941 -0.115340866 0.1304181
0.08651941 -0.17090324 -0.023602478 0.14867531 -0.111982726 0.23664333 -0.06427979 -0.2664487
0.16842413 0.3025996 0.014519815 0.117738135 0.17754437 -0.10379503 0.48458394 -0.08563216
0.25336024 0.21338539 0.08674294 -0.25898796 -0.22856018 0.45470816 0.34775552 -0.20754774
-0.1637522 0.03952101 0.00026332447 0.17844194 0.21524815 -0.10341943 -0.10526192 0.09656558
-0.08072538 0.12922056 0.02711246 -0.42229536 0.31578347 0.06689489 0.891759 0.0041236775
-0.21345156 0.3018966 0.18787576 0.50820416 0.0990469 -0.09484793 -0.09867878 0.4081278
0.27876127 -0.09203849 0.00921795 -0.10456956 0.20270711 -0.10703455 0.2592651 0.4067883
00000000: 0486 41bd 0381 793e 536c 1a3f 6026 ce3c
00000010: 91e9 b13d 70c5 243e d537 ecbd 538c 053e
00000020: 1731 b13d 4201 2fbe fc59 c1bc 573e 183e
00000030: 3357 e5bd a152 723e 1fa5 83bd f76b 88be
00000040: 6077 2c3e 56ee 9a3e 85e4 6d3c b120 f13d
00000050: 31ce 353e 7d92 d4bd 631b f83e ea5f afbd
00000060: 6fb8 813e b381 5a3e 48a6 b13d 129a 84be
00000070: ae0b 6abe 82cf e83e 030d b23e 6587 54be
00000080: a8ae 27be c8e0 213d d00e 8a39 7cb9 363e
00000090: 036a 5c3e 91cd d3bd 9093 d7bd 2dc4 c53d
000000a0: 5953 a5bd 6552 043e f31a de3c 1937 d8be
000000b0: 5fae a13e 3000 893d 514a 643f ea1f 873b
000000c0: 0c93 5abe 3192 9a3e 8162 403e ab19 023f
000000d0: 1ad9 ca3d a23f c2bd 1a18 cabd 21f6 d03e
000000e0: ccb9 8e3e ad7e bcbd e206 173c 9128 d6bd
000000f0: 7492 4f3e ee34 dbbd 65be 843e 8e46 d03e

fc31.weight f4 [50, 64]
0.033430755 -0.017107008 8.325376e-06 -0.11937627 0.33143803 0.14467974 0.022435416 0.2901281
0.17589635 -0.014817333 0.111094296 0.13218151 0.20380956 0.23608756 0.011255339 0.13333249
0.103139795 -0.49778256 -0.087165385 -0.20111966 -0.1270448 0.088927425 -0.1112844 -0.3176457
-0.084734045 0.039691146 0.19224812 -0.013632712 -0.116182245 0.05638279 -0.051435944 -0.013212383
0.04879847 0.009384991 -0.21576858 0.085350916 0.034289625 0.21172214 -0.06093751 -0.15561022
-0.061883476 -0.44624248 0.026938058 0.010270756 -0.057033457 -0.009468185 0.05239242 -0.07016711
-0.21444805 0.17909157 0.078974955 -0.06455908 -0.43107477 0.4147157 0.102207884 0.34672493
-0.24908742 0.125345 -0.14887798 -0.24896164 0.07116889 0.080131695 -0.114941865 0.18040794
0.108107165 -0.18647012 0.23289154 0.048541993 -0.25436023 0.22661875 0.085123606 0.20972034
0.13707286 -0.04397333 0.07621449 -0.10026246 0.03653183 -0.4347617 0.1579058 -0.40391377
-0.038672198 -0.2790876 0.038082097 -0.06505587 -0.12397674 -0.000615676 0.09765593 -0.22206844
0.1796056 0.029740227 -0.22975627 0.047318727 0.052769043 -0.11088701 0.3059212 -0.05370829
0.24610385 0.08819619 0.34793344 0.014794628 0.31081465 -0.057164896 0.04368078 0.15739815
0.21703245 0.034358863 -0.20156069 0.24420972 0.017972194 -0.06267772 0.09352424 -0.17395687
-0.33219078 -0.06444723 -0.085187756 0.15077738 -0.08654313 -0.456845 -0.114318036 0.11690652
-0.082082376 -0.11621721 -0.2244238 0.18898231 -0.06443458 -0.17953432 -0.012043659 -0.43148547
0.049450275 0.0025958694 0.0023192503 -0.0049454574 0.0032511794 -0.005275703 0.077358656 0.008070248
0.013356163 -0.003875997 -0.002732525 0.0033032678 -0.166483 0.008693192 -0.0048434 0.0988225
0.004692593 0.0063222717 0.00042218267 -0.0034417722 -0.91215855 0.111047335 -0.002310418 -0.0096894
-0.001894346 0.0018697124 0.014960288 -0.007717214 0.00039525924 -0.001164365 0.0024043114 0.0005135561
0.0011756585 -0.1341058 0.0016260389 0.01196225 0.00051177625 -0.08216256 -0.014407619 0.0045453897
-0.2471126 0.0082034385 0.0018746936 -0.004577769 0.005222541 -0.0015632953 0.0057228925 0.008126169
-0.0012117417 -0.0051291813 0.014691996 -0.0015242427 -0.003373454 -0.3766814 -0.12596044 0.00036078403
0.002742617 -0.16181919 -0.15369858 0.24848755 -0.0035262424 0.026244707 0.0057163797 0.0026250894
-0.12018847 -0.2565717 0.17266418 -0.025006121 0.009532049 -0.12890325 0.09305641 0.07733533
0.06793107 0.012336171 -0.18107447 0.18834585 0.04009459 0.11903281 -0.52336425 0.200282
0.0032104857 -0.22585402 -0.077447645 -0.1301997 -0.11856528 -0.16711049 0.31142214 0.15766135
0.04226383 0.12767926 0.12108726 -0.00040730013 0.22889239 -0.08998682 0.20244545 -0.10304043
0.078521326 -0.06406255 0.15053655 0.089597404 -0.024892421 0.12996158 -0.16861056 -0.046175215
0.19891863 0.09906102 0.38805935 0.011214052 -0.4524584 0.020440415 -0.06094216 0.13995011
-0.20059977 0.14480932 -0.14649613 0.10260215 0.3230594 -0.13907282 0.045948613 -0.20143394
-0.121298715 -0.19845484 0.016548585 0.1564511 -0.057011086 0.15300275 -0.56661946 0.21396491
00000000: b0ee 083d ff23 8cbc 38ad 0b37 8c7b f4bd
00000010: 3fb2 a93e ed26 143e 7aca b73c ac8b 943e
00000020: 2c1e 343e 66c4 72bc 6885 e33d 975a 073e
00000030: 74b3 503e f0c0 713e 5068 383c 5088 083e
00000040: f53a d33d 5bdd febe c483 b2bd 50f2 4dbe
00000050: 0818 02be 951f b63d 13e9 e3bd 75a2 a2be
00000060: 0b89 adbd 2f93 223d b1dc 443e bd5b 5fbc
00000070: f5f0 edbd a4f1 663d 7fae 52bd c078 58bc
00000080: e8e0 473d 81c3 193c 70f2 5cbe 76cc ae3d
00000090: 4773 0c3d b0cd 583e 9c99 79bd 4958 1fbe
000000a0: 8779 7dbd e579 e4be 34ad dc3c ac46 283c
000000b0: ea9b 69bd 7220 1bbc 6f99 563d c6b3 8fbd
000000c0: 4598 5bbe c863 373e 9fbd a13d 8d37 84bd
000000d0: d5b5 dcbe 9e55 d43e 5e52 d13d ee85 b13e
000000e0: c610 7fbe 715a 003e 7873 18be cdef 7ebe
000000f0: ffc0 913d 161c a43d a466 ebbd dcbc 383e
00000100: 4a67 dd3d 06f2 3ebe 1f7b 6e3e f8d3 463d
00000110: 813b 82be bf0e 683e 4955 ae3d eec0 563e
00000120: d45c 0c3e 611d 34bd 5816 9c3d 6856 cdbd
00000130: 66a2 153d 1699 debe 0fb2 213e c9cd cebe
00000140: bd66 1ebd 92e4 8ebe f9fb 1b3d 033c 85bd
00000150: 84e7 fdbd 5165 21ba d5ff c73d e965 63be
00000160: 88ea 373e c7a1 f33c 3a45 6bbe 48d1 413d
00000170: 5a24 583d bb18 e3bd b4a1 9c3e 39fd 5bbd
00000180: a602 7c3e 34a0 b43d 5524 b23e 2b65 723c
00000190: 1923 9f3e bd25 6abd 9eea 323d fb2c 213e
000001a0: c13d 5e3e e1bb 0c3d ed65 4ebe 1d12 7a3e
000001b0: 6c3a 933c 2d5d 80bd a389 bf3d c021 32be
000001c0: e914 aabe e9fc 83bd eb76 aebd 6365 1a3e
000001d0: 863d b1bd 96e7 e9be 931f eabd b06c ef3d
000001e0: ce1a a8bd 4a03 eebd 5acf 65be 9484 413e
000001f0: 47f6 83bd d8d7 37be c452 45bc aaeb dcbe
00000200: 5f8c 4a3d 761f 2a3b 90fe 173b 810d a2bb
00000210: bd11 553b cedf acbb 376e 9e3d 1339 043c
00000220: cfd3 5a3c 7004 7ebb 2a14 33bb a37b 583b
00000230: 857a 2abe e46d 0e3c 62b5 9ebb 7363 ca3d
00000240: 53c4 993b 0f2b cf3b 6658 dd39 5b8f 61bb
00000250: 3983 69bf c96c e33d 626a 17bb 4ac0 1ebc
00000260: b44b f8ba 2311 f53a ff1b 753c afe0 fcbb
00000270: cc3a cf39 9b9d 98ba a791 1d3b 2ba0 063a
00000280: 8e18 9a3a 0853 09be d020 d53a 50fd 433c
00000290: b928 063a d844 a8bd ef0d 6cbc 7ef1 943b
000002a0: 160b 7dbe b767 063c 47b8 f53a 1c01 96bb
000002b0: d921 ab3b 7ce7 ccba 1a87 bb3b a023 053c
000002c0: 4ed3 9eba b112 a8bb b3b6 703c 19c9 c7ba
000002d0: 2b15 5dbb 62dc c0be c6fb 00be 9d27 bd39
000002e0: 7abd 333b eeb3 25be 2963 1dbe 8573 7e3e
000002f0: 8818 67bb 24ff d63c 7850 bb3b b109 2c3b
00000300: 5f25 f6bd 5e5d 83be e1ce 303e a3d9 ccbc
00000310: 502c 1c3c 37ff 03be 5c94 be3d fc61 9e3d
00000320: 721f 8b3d a71d 4a3c 966b 39be bcdd 403e
00000330: 3a3a 243d 79c7 f33d 33fb 05bf b916 4d3e
00000340: 0367 523b 4746 67be df9c 9ebd 1253 05be
00000350: 5bd2 f2bd 031f 2bbe b972 9f3e fa71 213e
00000360: d61c 2d3d 5abe 023e 99fc f73d e68a d5b9
00000370: c462 6a3e 034b b8bd dc4d 4f3e dc06 d3bd
00000380: cacf a03d 3a33 83bd 4126 1a3e d87e b73d
00000390: 31eb cbbc a614 053e 3fa8 2cbe 3922 3dbd
000003a0: 53b1 4b3e 81e0 ca3d b7af c63e 25bb 373c
000003b0: a1a8 e7be a872 a73c 7d9e 79bd 154f 0f3e
000003c0: 076a 4dbe e548 143e 1503 16be 1321 d23d
000003d0: 0b68 a53e 1b69 0ebe 9d34 3c3d b344 4ebe
000003e0: 766b f8bd bf37 4bbe e690 873c b834 203e
000003f0: 7584 69bd c1ac 1c3e f90d 11bf 9e19 5b3e

fc31.bias f4 [50]
0.5819236 0.033655807 -0.29129797 -0.17490771 -0.31883952 -0.07246858 0.04174196 -0.5438425
0.062219407 -9.7307915e-05 -0.083683245 -0.13340314 -0.3855331 -0.03613032 0.062873214 -0.09446766
-0.15127839 -0.18959774 0.06567801 -0.56369245 -0.27188167 0.27528754 0.2693782 0.018619455
0.25481567 0.16140413 0.07698028 -1.0211463 -0.15459648 -0.36260933 -0.8267454 -0.32149887
0.32352084 0.02683841 -0.08760131 -0.17059241 0.25904116 -0.68553686 0.038882043 -0.062459793
0.27701807 -0.8344635 -0.2644669 0.07956785 -0.29084083 0.21460444 -0.02835302 0.4204735
0.09181546 -0.069838546
00000000: f2f8 143f acda 093d 0225 95be 021b 33be
00000010: ef3e a3be 686a 94bd 9ef9 2a3d 4339 0bbf
00000020: c7d9 7e3d ca11 ccb8 1f62 abbd d59a 08be
00000030: 9864 c5be 63fd 13bd acc3 803d 4378 c1bd
00000040: b9e8 1abe e925 42be 3182 863d 264e 10bf
00000050: 1334 8bbe 7df2 8c3e f0eb 893e d487 983c
00000060: 3377 823e 2047 253e d6a7 9d3d ecb4 82bf
00000070: 8a4e 1ebe eea7 b9be 96a5 53bf 809b a4be
00000080: 86a4 a53e 3adc db3c 5168 b3bd c7af 2ebe
00000090: 0ba1 843e 587f 2fbf c742 1f3d d7d5 7fbd
000000a0: 50d5 8d3e 669f 55bf 3568 87be 78f4 a23d
000000b0: 17e9 94be 44c1 5b3e 9844 e8bc 4d48 d73e
000000c0: be09 bc3d 8307 8fbd

fc32.weight f4 [50, 64]
-0.052378844 -0.14563087 0.0834741 0.0034828526 -0.100840315 -0.11908975 -0.03457292 -0.123621374
-0.06629227 -0.050087687 -0.15292951 0.14772442 0.2679872 -0.2008023 -0.007701385 -0.22034797
0.048937585 -0.28867552 -0.5487227 -0.071983695 -0.2552166 -0.30801654 -0.0893065 0.06324724
-0.07058635 -0.2522324 -0.10536156 0.11751454 0.024373945 -0.2969888 0.05827882 -0.2412786
-0.059821445 -0.004440723 -0.1411788 -0.08031929 -0.15310764 -0.10908689 -0.20252286 0.16928346
-0.2791999 -0.11992239 0.22932133 -0.09648819 -0.02955193 -0.26996985 0.04174745 -0.32960743
-0.059588686 -0.19708952 -0.3309604 0.007218122 0.1348832 0.2652461 -0.11137502 -0.4554579
-0.1009922 0.3422827 0.04262932 -0.13902509 -0.3055934 0.2110786 -0.2764875 -0.26933667
-0.1390613 -0.07489112 -0.024463907 0.100609004 0.055001035 -0.37196895 -0.23153113 -0.42430258
-0.0653052 -0.088372715 -0.18875764 -0.07578705 -0.16991839 -0.1483852 -0.14130515 0.29799744
0.30201805 -0.036760356 -0.2898996 -0.15393326 0.13082443 0.101234645 -0.15080352 -0.041499067
-0.0058103045 -0.18519886 0.01477083 0.14539325 -0.2690708 -0.10754185 0.010317768 -0.13822432
0.01586664 0.065508015 -0.07308515 -0.05878028 -0.020256607 0.104024194 0.24199125 -0.3392444
-0.030480431 -0.14976144 0.33474007 0.08068445 -0.53819656 0.16908042 -0.45931983 0.08963553
0.08413254 -0.05162222 -0.42042804 0.05985046 -0.52073216 -0.11973653 -0.20336308 0.28507212
0.08603441 -0.21232295 0.21481042 0.2761548 -0.134231 0.13742992 -0.32245168 -0.115770854
0.059489567 -0.15840977 -0.08457798 -0.15760566 -0.16489609 -0.2782029 -0.20824952 -0.16886939
0.09000194 -0.1278053 0.164017 -0.49047995 -0.059046622 0.27642965 0.14912352 -0.27302188
0.25418252 -0.15758516 -0.24971211 -0.13324894 0.07874314 -0.25463018 -0.20718357 -0.31230763
0.06503213 -0.4569678 -0.28449953 -0.13677534 0.24000356 0.058304194 -0.019115437 -0.15544601
0.20332897 0.07777535 -0.030553821 0.017747948 -0.1356978 -0.061695952 0.09847861 -0.108577676
-0.06341097 -0.26789683 0.059751328 -0.38662502 -0.37572277 -0.16979238 -0.19324505 0.17505015
-0.22462977 -0.044415776 -0.0952333 -0.10385892 -0.17616153 -0.03533378 -0.06476446 0.26902807
-0.24838425 -0.09089902 -0.13522522 -0.2585327 0.049886856 -0.006295474 -0.17353404 -0.17516154
0.15215348 -0.26496702 -0.19841322 -0.10906532 -0.16967061 -0.0002068341 0.020475885 -0.047141727
0.035926424 0.16590606 -0.24797437 0.2377155 -0.20423514 0.2952181 -0.019493876 0.107488245
0.047334842 -0.3312472 -0.035867244 0.29558468 -0.01835594 -0.15287066 -0.02906057 0.099339604
-0.268571 -0.6605547 -0.25522462 0.14781533 0.12765506 0.00992355 -0.5168945 -0.1201831
-0.19432558 -0.10082463 -0.18570748 -0.37547395 -0.07863034 -0.020065326 -0.108178355 0.05647279
-0.03758298 0.15890892 -0.040270437 -0.16956556 -0.038998645 -0.31713796 0.24354614 -0.09345888
-0.12216731 -0.52128154 0.11333361 0.04289234 -0.0746724 0.26235616 -0.28526396 -0.016236356
-0.30862427 0.03321486 -0.11599246 -0.14386769 -0.13298048 0.27526277 -0.272538 -0.12233657
00000000: 338b 56bd 4220 15be 78f4 aa3d 9240 643b
00000010: 5e85 cebd 54e5 f3bd 569c 0dbd 342d fdbd
00000020: 3ec4 87bd bf28 4dbd 8e99 1cbe 1245 173e
00000030: 9e35 893e 1e9f 4dbe e65b fcbb e6a2 61be
00000040: c772 483d 47cd 93be 1779 0cbf 306c 93bd
00000050: c0ab 82be 58b4 9dbe 54e6 b6bd c587 813d
00000060: 948f 90bd 9b24 81be cdc7 d7bd 77ab f03d
00000070: deab c73c ea0e 98be c6b5 6e3d bd11 77be
00000080: 5507 75bd 7c83 91bb 2d91 10be 717e a4bd
00000090: 40c8 1cbe f368 dfbd 2762 4fbe a558 2d3e
000000a0: 4af3 8ebe df99 f5bd 36d3 6a3e 9a9b c5bd
000000b0: e416 f2bc 7d39 8abe 60ff 2a3d 4ec2 a8be
000000c0: 4413 74bd d6d1 49be a473 a9be ff85 ec3b
000000d0: d21e 0a3e 56ce 873e 9618 e4bd c731 e9be
000000e0: 00d5 cebd ae3f af3e 159c 2e3d 985c 0ebe
000000f0: bd76 9cbe fd24 583e c58f 8dbe 7fe6 89be
00000100: 1666 0ebe 8460 99bd 8868 c8bc 180c ce3d
00000110: c448 613d b772 bebe 7f16 6dbe 303e d9be
00000120: bcbe 85bd c1fc b4bd af49 41be 3e36 9bbd
00000130: 16ff 2dbe 4af2 17be 4cb2 10be 1f93 983e
00000140: 1ca2 9a3e 0792 16bd b86d 94be aea0 1dbe
00000150: d7f6 053e 1c54 cf3d 3d6c 1abe edfa 29bd
00000160: 5e64 bebb c5a4 3dbe 5a01 723c f8e1 143e
00000170: a6c3 89be e73e dcbd db0b 293c ad8a 0dbe
00000180: c1fa 813c 1129 863d abad 95bd 97c3 70bd
00000190: 2ff1 a5bc a30a d53d 8ecc 773e 71b1 adbe
000001a0: 19b2 f9bc 105b 19be 0d63 ab3e e43d a53d
000001b0: 40c7 09bf 6b23 2d3e f82b ebbe d592 b73d
000001c0: ae4d ac3d d271 53bd 5842 d7be c225 753d
000001d0: b44e 05bf 6d38 f5bd 693e 50be f9f4 913e
000001e0: cf32 b03d 306b 59be 43f7 5b3e 2964 8d3e
000001f0: da73 09be 6eba 0c3e 6318 a5be 4519 edbd
00000200: 55ab 733d 2c36 22be 3837 adbd 6163 21be
00000210: 85da 28be 9c70 8ebe 5d3f 55be 19ec 2cbe
00000220: f052 b83d 64df 02be 13f4 273e 3020 fbbe
00000230: dfda 71bd 3088 8d3e d6b3 183e 86c9 8bbe
00000240: 3624 823e 015e 21be 88b4 7fbe 6972 08be
00000250: 1544 a13d e35e 82be ee27 54be c9e6 9fbe
00000260: 912f 853d aff7 e9be eca9 91be d60e 0cbe
00000270: 7ec3 753e 61d0 6e3d fa97 9cbc 3d2d 1fbe
00000280: 7835 503e af48 9f3d 024c fabc 2564 913c
00000290: 5df4 0abe e5b4 7cbd 27af c93d f95d debd
000002a0: 9cdd 81bd c629 89be cfbd 743d b7f3 c5be
000002b0: bc5e c0be 0ede 2dbe 08e2 45be 5940 333e
000002c0: 5905 66be 51ed 35bd ad09 c3bd fcb3 d4bd
000002d0: b063 34be 27ba 10bd 3ba3 84bd 0cbe 893e
000002e0: 7158 7ebe 4429 babd 7b78 0abe 665e 84be
000002f0: 2956 4c3d 434a cebb e8b2 31be 8c5d 33be
00000300: 1fce 1b3e c2a9 87be d62c 4bbe a35d dfbd
00000310: 22be 2dbe 9be1 58b9 0bbd a73c af17 41bd
00000320: 9627 133d 47e3 293e feec 7dbe b16b 733e
00000330: 0423 51be d426 973e 9fb1 9fbc cc22 dc3d
00000340: 2ee2 413d 3c99 a9be 88e9 12bd e056 973e
00000350: 325f 96bc 208a 1cbe 6f10 eebc 9072 cb3d
00000360: 2382 89be 1d1a 29bf cdac 82be e75c 173e
00000370: 02b8 023e 6396 223c 3353 04bf 8f22 f6bd
00000380: 49fd 46be 257d cebd 1a2a 3ebe 1f3e c0be
00000390: f208 a1bd 0a60 a4bc 9d8c ddbd 0350 673d
000003a0: 9cf0 19bd 05b9 223e 9df2 24bd 98a2 2dbe
000003b0: 0bbd 1fbd e85f a2be 2964 793e 5f67 bfbd
000003c0: db32 fabd b572 05bf 741b e83d e1af 2f3d
000003d0: d8ed 98bd 8c53 863e 1e0e 92be 1b02 85bc
000003e0: 0004 9ebe 4e0c 083d 748d edbd 0d52 13be
000003f0: 092c 08be 3eef 8c3e 1a8a 8bbe 988b fabd

fc32.bias f4 [50]
-0.17517397 -0.19019602 -0.17795798 -0.16773348 -0.18563549 -0.08897381 -0.14672981 -0.20191412
-0.18034609 -0.16787843 -0.12336208 -0.19552353 -0.12807594 -0.20602764 -0.16280538 -0.11176391
-0.17639382 -0.15269315 -0.19295594 -0.17375116 -0.1530308 -0.19706379 -0.15277745 -0.19426352
-0.12791273 -0.12301593 -0.16433367 -0.09751493 -0.18293884 -0.13571012 -0.14954932 -0.13015875
-0.16545166 -0.123831846 -0.10588816 -0.13342172 -0.19464122 -0.13636547 -0.21650928 -0.16822754
-0.14917032 -0.18877856 -0.17740957 -0.12942761 -0.21521857 -0.10079267 -0.16274963 -0.18069214
-0.19023693 -0.15975048
00000000: ce60 33be bfc2 42be 9e3a 36be 53c2 2bbe
00000010: 3b17 3ebe e737 b6bd 5740 16be 93c2 4ebe
00000020: a5ac 38be 53e8 2bbe 42a5 fcbd 5237 48be
00000030: 5726 03be e9f8 52be 74b6 26be 7ae4 e4bd
00000040: 95a0 34be 985b 1cbe 3e96 45be d3eb 31be
00000050: 1bb4 1cbe 17cb 49be b171 1cbe 04ed 46be
00000060: 8efb 02be c7ef fbbd 1647 28be e8b5 c7bd
00000070: 5254 3bbe 98f7 0abe 7523 19be 5648 05be
00000080: 296c 29be 8d9b fdbd e4db d8bd b49f 08be
00000090: 0750 47be 64a3 0bbe 9cb4 5dbe d743 2cbe
000000a0: 1bc0 18be 2b4f 41be dbaa 35be ac88 04be
000000b0: 4262 5cbe 636c cebd d7a7 26be 5c07 39be
000000c0: 78cd 42be a195 23be

fc4.weight f4 [64, 50]
-0.05806088 -0.025819872 -0.0016954322 -0.00033927418 0.014021887 0.039408088 -0.00066793215 0.006595219
0.055766385 0.029458424 -0.015591135 -0.0054427795 -0.0061175213 -0.0016815761 -0.06447682 0.12502356
-0.037185013 0.05591755 -0.009086835 0.002672566 -0.0058404836 0.036337662 0.025207784 0.016438235
-0.0527612 -0.05450443 0.027744524 0.0035805567 -0.011468718 -0.034624282 0.002681687 -0.008209991
-0.05566462 -0.013694826 0.1605979 0.04400814 0.002639629 -0.00047816164 -0.0012251334 -0.026534833
-0.06453236 0.011788555 0.0063530905 0.0009620363 0.009644163 -0.049419057 -0.012110478 0.054731324
0.06293176 0.015312079 -0.031673715 -0.0039583812 0.0029521883 0.03239322 0.01892593 0.0011087917
-0.02499212 0.060494054 -0.050431896 0.028890314 -0.021533454 0.08391361 -0.008776624 0.046100803
0.02847242 0.0043846285 -0.019429775 0.035097327 -0.043295514 0.024621299 0.009214482 -0.05024348
0.01137659 -0.038496844 0.0052845804 0.008218117 -0.043860614 0.05721641 0.115743846 -0.02640496
0.009340588 -0.018345496 -0.01623656 0.0065686535 0.011922509 0.012323011 -0.0011124914 0.0024975839
-0.0070667546 0.008389439 -0.011772768 0.01954776 -0.06496052 -0.05608588 -0.06491413 -0.024689622
-0.01352428 -0.027925013 0.0031777842 -0.040158793 0.30362242 0.32224748 -0.018189205 -0.15375885
-0.11192634 0.1279059 0.19250183 -0.23505159 0.1275528 0.21728764 0.08823256 0.025935087
-0.63022816 0.03093776 -0.18301138 -0.36141658 -0.37978405 -0.29107326 0.6394987 -0.2932148
0.39185244 0.64072067 -0.4736371 -1.0102226 0.4624428 0.3786455 0.29214615 0.09059024
0.09183889 -0.23365913 -0.09627136 0.17581671 0.6788069 0.16761099 0.23810641 0.19357784
0.12520601 -0.084965214 -0.40343443 -0.11333387 0.43112755 0.080869555 -0.1331444 -0.13836268
0.111083314 0.14271942 -0.33399382 0.34338573 0.10764671 0.21987775 -0.094288446 0.035045926
0.0007078407 -0.068920985 -0.0061308886 0.072130114 -0.004847841 0.0034499776 0.0063486225 -0.027152514
0.0069542294 -0.008533329 -0.021822002 -0.0076348903 -0.052078675 -0.017185315 0.02705496 -0.06981415
-0.004885313 8.15088e-05 -0.0570387 -0.045834422 0.0057192864 -0.036970444 -0.04700639 0.06697918
0.013819786 -0.0015142354 -0.0043017217 0.004555962 0.0032562616 -0.06080126 -0.027971288 -0.0642744
0.017966794 0.03449858 -0.033418227 -0.0137392245 -0.015514319 -0.035583373 0.0035785437 0.00074284023
-0.0038811204 -0.007385951 -0.00019886346 0.116446406 0.0040478213 0.0015499333 -0.0044015776 -0.006920331
0.07100954 0.046297602 -0.0007071902 0.033536404 -0.032770805 -0.026902456 0.03045227 0.015327079
0.0528439 -0.026235398 0.013539552 0.0067028673 0.023964804 0.012140819 0.0008973488 0.09082807
-0.040051688 -0.079127744 -0.04415352 0.031863254 0.015835777 0.06286122 0.08523211 0.012046711
0.017546529 0.007620564 -0.07171978 0.013469936 -0.024265138 -0.09207026 -0.0021952884 -0.09429814
-0.09484518 0.008475161 -0.05452315 0.059628543 0.028676221 0.0018894923 0.020382443 -0.024234852
-0.003634632 0.040111873 0.03587612 -0.004552686 0.005103384 0.03840914 0.013870386 -0.058707025
-0.00763696 0.016699567 -0.00629311 -0.0050929924 0.0038312518 -0.024522938 0.0027686507 -0.022963181
00000000: 3fd1 6dbd 3284 d3bc 4439 deba 9ce0 b1b9
00000010: 0fbc 653c 606a 213d 2b18 2fba b51c d83b
00000020: 4b6b 643d cb52 f13c f671 7fbc 5859 b2bb
00000030: 7d75 c8bb 5568 dcba 6c0c 84bd 2d06 003e
00000040: 504f 18bd cd09 653d f3e0 14bc 3826 2f3b
00000050: 8761 bfbb cdd6 143d 8e80 ce3c 7aa9 863c
00000060: 211c 58bd 0a40 5fbd 7c48 e33c c6a7 6a3b
00000070: 4ae7 3bbc 31d2 0dbd 3ebf 2f3b 3383 06bc
00000080: 9600 64bd 4360 60bc c773 243e e141 343d
00000090: a0fd 2c3b c5b1 fab9 a894 a0ba 945f d9bc
000000a0: 8b29 84bd c924 413c 962d d03b 2a31 7c3a
000000b0: 8d02 1e3c a36b 4abd 076b 46bc f42d 603d
000000c0: 5ee2 803d 84df 7a3c 4cbc 01bd 4fb5 81bb
000000d0: 8079 413b c1ae 043d 8d0a 9b3c e054 913a
000000e0: 46bc ccbc 9dc8 773d ad91 4ebd 61ab ec3c
000000f0: ed66 b0bc e6da ab3d d4cb 0fbc 32d4 3c3d
00000100: fe3e e93c eeac 8f3b 312b 9fbc 37c2 0f3d
00000110: a356 31bd 9bb2 c93c 57f8 163c 1bcc 4dbd
00000120: e064 3a3c deae 1dbd 462a ad3b 48a5 063c
00000130: 30a7 33bd c15b 6a3d 1c0b ed3d 374f d8bc
00000140: 4409 193c 4b49 96bc 8902 85bc dc3d d73b
00000150: a156 433c 74e6 493c 04d1 91ba 81ae 233b
00000160: 3c90 e7bb dc73 093c 91e2 40bc a022 a03c
00000170: 050a 85bd 4fba 65bd b3f1 84bd e441 cabc
00000180: f194 5dbc ffc2 e4bc 5f42 503b 8c7d 24bd
00000190: 6674 9b3e 9ffd a43e 8701 95bc f672 1dbe
000001a0: a339 e5bd c4f9 023e 331f 453e 5db1 70be
000001b0: 349d 023e a780 5e3e 46b3 b43d d275 d43c
000001c0: a256 21bf 2f71 fd3c 5667 3bbe 980b b9be
000001d0: 0e73 c2be 8e07 95be 30b6 233f 4020 96be
000001e0: e2a0 c83e 4506 243f 9080 f2be f94e 81bf
000001f0: 4dc5 ec3e d3dd c13e 2e94 953e 6087 b93d
00000200: 0716 bc3d 5744 6fbe eb29 c5bd 4c09 343e
00000210: 4ac6 2d3f 37a2 2b3e 2bd2 733e 4539 463e
00000220: 0136 003e 3e02 aebd f58e cebe 971b e8bd
00000230: c0bc dc3e f09e a53d 0157 08be f2ae 0dbe
00000240: a67f e33d 0a25 123e 3d01 abbe 41d0 af3e
00000250: e175 dc3d a227 613e 4d1a c1bd 518c 0f3d
00000260: 638e 393a 7226 8dbd 9fe5 c8bb f4b8 933d
00000270: a3da 9ebb 0519 623b 1b08 d03b f36e debc
00000280: 4ee0 e33b 60cf 0bbc 0ec4 b2bc 1a2e fabb
00000290: 7350 55bd 38c8 8cbc 5da2 dd3c b9fa 8ebd
000002a0: fa14 a0bb b4ef aa38 69a1 69bd e0bc 3bbd
000002b0: da68 bb3b 526e 17bd c689 40bd 612c 893d
000002c0: 626c 623c 4f79 c6ba 75f5 8cbb 2e4a 953b
000002d0: 0167 553b be0a 79bd 0b24 e5bc 4ca2 83bd
000002e0: 192f 933c 624e 0d3d 8de1 08bd 7c1a 61bc
000002f0: c52f 7ebc dfbf 11bd 0086 6a3b 2abb 423a
00000300: 655a 7ebb d905 f2bb 0186 50b9 747b ee3d
00000310: 96a3 843b 2227 cb3a 1c3b 90bb f2c3 e2bb
00000320: 736d 913d 8ea2 3d3d bb62 39ba 785d 093d
00000330: ae3a 06bd 8a62 dcbc 0a77 f93c 6e1e 7b3c
00000340: d872 583d 9eeb d6bc ffd4 5d3c baa3 db3b
00000350: d651 c43c 49ea 463c 0f3c 6b3a 1104 ba3d
00000360: 3d0d 24bd ba0d a2bd 52da 34bd 0b83 023d
00000370: 08ba 813c 62bd 803d 2c8e ae3d 915f 453c
00000380: bdbd 8f3c edb5 f93b d2e1 92bd 02b1 5c3c
00000390: afc7 c6bc 558f bcbd d4de 0fbb 621f c1bd
000003a0: 313e c2bd 67db 0a3c ab53 5fbd 0f3d 743d
000003b0: 65ea ea3c d7a8 f73a 15f9 a63c 2b88 c6bc
000003c0: 0233 6ebb 594c 243d d7f2 123d b32e 95bb
000003d0: 4a3a a73b e752 1d3d 9e40 633c c776 70bd
000003e0: 773f fabb 88cd 883c 6f36 cebb 1ee3 a6bb
000003f0: bd15 7b3b 54e4 c8bc 4072 353b 481d bcbc

fc4.bias f4 [64]
1.5110381 0.5707427 -2.1096337 1.5990869 0.95600754 0.61320806 0.7565357 1.4340154
-1.9633772 0.8480296 1.1982965 0.58007187 -2.304328 1.1232921 1.5204511 1.5189358
1.5717776 1.3110079 -1.6491132 0.69570786 0.5539104 0.7835291 1.13056 0.81298506
1.1001157 -2.218694 -2.0594819 0.67271805 0.71812737 1.2255931 0.60467416 1.4497925
0.5782378 -2.21072 1.4928936 1.4712558 1.0854543 -2.3159885 -0.21397665 -1.428117
-1.3764013 -2.2924104 0.9976018 0.66145784 0.5595971 0.79907876 0.20248532 -1.609536
-1.8355119 -1.5919495 0.60806274 0.65954155 0.547523 1.5491395 0.5909423 0.99958086
-0.98348355 -1.8357152 1.1142949 1.4699639 -2.3226216 0.564727 0.86584735 -2.3190155
00000000: b269 c13f 321c 123f 3d04 07c0 e1ae cc3f
00000010: e9bc 743f 34fb 1c3f 53ac 413f d18d b73f
00000020: f24f fbbf 7818 593f c861 993f 977f 143f
00000030: 1c7a 13c0 09c8 8f3f 249e c23f 7d6c c23f
00000040: 0230 c93f 1bcf a73f 2416 d3bf e919 323f
00000050: 12cd 0d3f 5d95 483f 31b6 903f ca1f 503f
00000060: 97d0 8c3f 15ff 0dc0 8dce 03c0 4037 2c3f
00000070: 32d7 373f 3ce0 9c3f edcb 1a3f cd92 b93f
00000080: 6407 143f 707c 0dc0 2317 bf3f 1c52 bc3f
00000090: 2bf0 8a3f 2839 14c0 b21c 5bbe 8acc b6bf
000000a0: eb2d b0bf dab6 12c0 d562 7f3f 4d55 293f
000000b0: c141 0f3f 6d90 4c3f 5058 4f3e 4705 cebf
000000c0: 0ef2 eabf 00c5 cbbf 00aa 1b3f b7d7 283f
000000d0: 782a 0c3f 344a c63f ff47 173f 88e4 7f3f
000000e0: 94c5 7bbf b7f8 eabf 37a1 8e3f c727 bc3f
000000f0: d5a5 14c0 f391 103f 2ca8 5d3f c06a 14c0
