simulate/model/vae_model.pth (torch, 182544 bytes, 14 tensors)

fc1.weight f4 [128, 70]
000000 be 98 34 3d 86 e3 23 3d 8f f2 e7 bc 30 00 79 3c
       0.04409098 0.040011905 -0.028313903 0.015197799
000010 d7 a6 a2 bd 1a b1 f4 bc 94 cf a7 bd a3 1e ac 3d
       -0.079419784 -0.029869605 -0.08193889 0.08404281
000020 11 49 f4 3d 65 98 51 3d 65 7f 48 be 16 d9 12 3d
       0.11927999 0.051170725 -0.19579847 0.03585156
000030 ec d5 12 be 25 29 e9 bd ce c4 b3 be ed 5f 83 be
       -0.14339417 -0.11384801 -0.35111088 -0.25659123
000040 68 05 93 be 0b 0d de bd 20 d8 8d be 77 d7 6b bd
       -0.28715062 -0.108423315 -0.27703953 -0.05757853
000050 a0 65 4b be 0e 73 63 be d9 31 d3 be 2a 98 6f be
       -0.19862986 -0.22211859 -0.41248968 -0.2339789
000060 bc c7 6d be 77 0a 01 bd 7d 67 79 be cc 48 34 bd
       -0.23220724 -0.03150412 -0.24355884 -0.044014737
000070 39 c7 43 3e aa b7 16 3e c0 9f 63 3e 25 3c dd 3d
       0.19118966 0.147185 0.22228909 0.10802487
000080 1a 9f 41 3e a5 d1 44 3d cf 53 e7 3d 10 06 18 3e
       0.18908349 0.048051495 0.11295282 0.14846063
000090 c4 1f 66 3e 5d be cc 3d 90 e9 3d 3e 7c 41 e6 3d
       0.22473055 0.099972464 0.18546128 0.11242959
0000a0 0b 7a 7b 3e 4b cb 36 3e 10 15 6e bd b7 2a b7 3d
       0.24558274 0.17850988 -0.058125556 0.08943694
0000b0 59 11 8d 3c ae 27 6f 3e 0a d4 8b 3e 78 81 6e 3e
       0.017220186 0.2335498 0.2731021 0.23291576
0000c0 a9 f5 04 3e f1 04 ad 3d 4d 29 54 be 59 16 23 3e
       0.12984337 0.08448208 -0.2071888 0.15926494
0000d0 23 49 6c 3e dc dc fa 3d cb 2b ce 3e 15 73 a2 3e
       0.23074774 0.12249157 0.40267786 0.31728426
0000e0 72 d1 d2 bd 6e 76 dd 3c a6 ba 04 bd 1e 82 c6 3d
       -0.10293855 0.02703401 -0.032404564 0.09692787
0000f0 27 64 75 bd 47 95 c4 3b 43 26 0b be 3a d9 39 3d
       -0.059909966 0.0059992406 -0.13588814 0.04537318
000100 f7 7a ec bd d8 f9 8e bd 42 53 f2 bd e8 95 5f bc
       -0.11546891 -0.06981248 -0.118322864 -0.01364658
000110 db 4f f8 bd ef a9 78 3c 6d 7e 15 3e 10 8b 52 be
       -0.12124606 0.015177234 0.14599009 -0.2056086
000120 f7 ac 1b bd f5 37 f3 bc 36 0c 4d be 75 b8 25 3e
       -0.03800675 -0.029689768 -0.2002419 0.16183646
000130 2e 1f 84 3e 4c 71 8d bd 04 ce 60 bd 95 be 94 be
       0.25805038 -0.06906375 -0.05488397 -0.29051653
000140 aa 47 4d be f5 33 4a bd 98 f9 f1 bc 6b c2 22 3c
       -0.20046869 -0.049365956 -0.02953796 0.009934048
000150 57 0b a0 bd 88 dc bf 3c 58 a7 2e bd 95 2a 78 bd
       -0.07814663 0.023420587 -0.04264006 -0.060587484
000160 a4 72 2a 3d 7b 54 1c bd 86 39 77 bd 3f cc a6 bd
       0.041613236 -0.038166504 -0.060357593 -0.081444256
000170 ef 24 85 bd d9 4c 90 3c 88 9e c0 3d 79 e6 4c 3c
       -0.06501185 0.017614769 0.094052374 0.012506121
000180 8a fd 91 bd 94 80 da 3d 7c 09 6a 3c f2 30 b8 bc
       -0.07128437 0.106690556 0.014284488 -0.022484276
000190 a5 b1 92 bd 49 72 1d be 03 f1 4c bd 26 5c 89 3c
       -0.07162789 -0.15375628 -0.050034534 0.016767573
0001a0 53 b2 14 bd 6d c0 a3 bd 33 5f fb 3b 13 f7 87 bc
       -0.036302876 -0.07995687 0.0076712607 -0.016597306
0001b0 68 50 dc 3d a9 81 05 bd a2 a0 11 3d a8 1d ff bc
       0.10757524 -0.032594357 0.035553582 -0.03114207
0001c0 63 00 e5 3d a2 07 c0 3e dc 5f 45 3c 95 f7 3e 3e
       0.111817144 0.37505823 0.01204678 0.18649133
0001d0 99 b5 99 be e2 0e ac 3d 7b 42 fd bd 3c a8 af 3e
       -0.3002136 0.08401276 -0.12366196 0.3430804
0001e0 d3 62 be 3e 5e ab aa 3e 44 e2 ae be 99 b8 93 3e
       0.37184772 0.33333868 -0.34157002 0.28851774
0001f0 5c 8f 19 bf f3 41 3a 3d 00 e3 b4 3d d1 54 cb bd
       -0.59984374 0.04547305 0.08832359 -0.09928287
000200 fb be 2f bc 86 c0 20 be b7 df 45 bc fe 1a f1 bd
       -0.010726686 -0.15698442 -0.012077264 -0.117727265
000210 4a 82 37 3e e8 84 e4 bd 43 2d 1c bd 48 58 85 bc
       0.17920795 -0.11158162 -0.038129102 -0.016277447
000220 3f 31 cc bd bc f8 dd bd 6a e4 7e bd 5d 2e e4 bd
       -0.099703304 -0.10838458 -0.06222955 -0.111416556
000230 79 2f c9 3d 50 c7 af 3c fe 66 99 bd 99 9d 59 3d
       0.09823508 0.021457344 -0.07490347 0.053128812
000240 e5 95 07 3d a6 01 de bb dd f1 dc bd 18 6e 4c be
       0.033101935 -0.006775099 -0.10788319 -0.19963872
000250 fd d0 c2 3d 8d e4 d2 3d 8d b5 92 3b d5 17 68 3c
       0.095125176 0.10297499 0.004477209 0.014165838
000260 c0 01 1c bd 17 a7 b5 3c e1 77 23 bd bb 8e 45 3e
       -0.038087606 0.022174401 -0.039909247 0.19292729
000270 54 11 fe 3d 0f 26 c1 3d 97 80 52 3b 92 54 e3 3d
       0.12405649 0.09431087 0.0032120103 0.11100115
000280 f8 04 f6 bd 4a 40 40 bd 93 d6 86 3d 0e fc 5e be
       -0.120126665 -0.04693631 0.065838955 -0.21775839
000290 3a 81 1a 3e 0e 86 e4 bd ec 93 4d be 9f 73 03 bd
       0.15088359 -0.111583814 -0.20075959 -0.032092687
0002a0 83 6c 20 3e 30 41 32 be 47 ae 5a be f7 74 59 3b
       0.15666394 -0.1740768 -0.21355544 0.0033181289
0002b0 f0 e6 ba bd 68 f8 8e 3d 5d 7d c4 3d 00 a3 62 bd
       -0.09126079 0.069809735 0.09594224 -0.05533123
0002c0 47 45 10 3d 06 97 86 3e 56 35 17 bd cf 9a 0a bd
       0.035222318 0.26287097 -0.0369161 -0.033839043
0002d0 cf 40 02 3e 58 c3 85 bd 8a 33 25 bd 92 4b 74 3e
       0.12720035 -0.065313995 -0.040332355 0.23856953
0002e0 19 ba ad 3d de 24 12 be b5 e6 0d bc 9f 97 33 3a
       0.08482761 -0.14271876 -0.008660962 0.00068509014
0002f0 b2 96 b9 bc 83 23 82 3d ca 42 a8 bd d0 b0 3c be
       -0.022654865 0.063544296 -0.08215864 -0.18426824
000300 f8 55 30 3d 9c 40 01 3e 72 87 66 3c ac fc 52 bd
       0.043050736 0.12622303 0.014070379 -0.051510498
000310 f3 4a a0 bd ae 15 6d 3e 7d 98 0a 3e eb 4f 35 be
       -0.078267954 0.23152801 0.13534732 -0.17706268
000320 af 72 e7 bd 70 f9 c8 3d 3f 7c 5a 3e f8 e0 83 be
       -0.11301171 0.098132014 0.21336459 -0.25757575
000330 a3 cd 4f be 67 a1 a3 3e 4a 1c 0c 3e 91 0f 22 3e
       -0.20293288 0.31959078 0.13682666 0.1582625
000340 9d d6 f4 bd 1b 9e d5 be 03 cf c0 3d 56 07 98 bd
       -0.11954997 -0.41722187 0.09414484 -0.07423274
000350 a3 ba 5c 3d b8 ce 3c 3e 81 dd a0 ba bf 78 98 bd
       0.05388893 0.18438232 -0.0012273045 -0.074449055
000360 26 7a 93 bd 99 cd 45 bc f5 80 c9 bd cf a3 31 bd
       -0.07201032 -0.012072944 -0.0983905 -0.04336911
000370 94 ce 38 bc 90 67 92 bd 2e 31 11 bc b0 1c a6 3d
       -0.011279721 -0.07148659 -0.008861823 0.081109405
000380 a4 d1 14 3e 7c 15 2b be 5c 01 e1 bd 0f 35 59 3d
       0.14533097 -0.16707414 -0.109865874 0.053029116
000390 b9 f8 3b 3e 3b 80 a6 bd 0e b3 13 bd a4 2f 88 bc
       0.18356599 -0.08129927 -0.03605943 -0.01662428
0003a0 e2 00 d6 bc e7 2c 1b 3e 9c f6 c6 bd cf 68 9d bd
       -0.026123468 0.15153848 -0.09715006 -0.07686006
0003b0 53 b0 83 bd 69 b1 03 3e f1 1b 8f bd 3b b7 98 3d
       -0.064301156 0.12860645 -0.06987751 0.074568234
0003c0 c7 4c a4 bd 63 70 45 be 1e e7 c5 3d e5 f3 66 be
       -0.080224566 -0.19281153 0.09663223 -0.22553976
0003d0 cd 35 3d 3e 77 1c 02 3e 6c ee 43 bd 7a df dd 3d
       0.18477555 0.12706171 -0.0478348 0.108336404
0003e0 8f ba d3 bc 98 78 89 bd d5 f8 67 bd 9a 32 18 3e
       -0.025845794 -0.067124546 -0.05663379 0.14863053
0003f0 2c ab 7a 3d 9b 6e 7d bd 98 6f 84 3d 1a de 5a be
       0.0611984 -0.06187306 0.06466597 -0.21373788

fc1.bias f4 [128]
000000 43 ce 16 3e 05 67 da 3d 5c b3 30 bf be 46 04 bf
       0.1472712 0.10664181 -0.6902368 -0.51670444
000010 a7 74 2f bf 1c e6 a6 be 3c 84 33 c0 10 d0 dc c0
       -0.6853737 -0.32597435 -2.804946 -6.9003983
000020 4f bc 85 be 23 7f b4 3c 8c a8 ff 3d bb de 2f bf
       -0.2612023 0.02203328 0.1248332 -0.68699235
000030 7a a7 3b bf a7 f6 87 bf 2c 89 b7 3e d4 34 d0 be
       -0.73302424 -1.0622147 0.3584684 -0.40665305
000040 5e 37 ec bd c9 9c 83 c0 84 8c 33 be c6 d2 93 3e
       -0.11533998 -4.112889 -0.17534071 0.28871745
000050 5d a4 e0 be 52 c3 e0 be f5 14 93 bf 2a 28 2f bf
       -0.438754 -0.43899018 -1.149077 -0.6842066
000060 bc b8 1c bf c0 fa 48 bf 0b 41 a9 be 3f e6 1f bf
       -0.6121938 -0.78507614 -0.33057436 -0.624607
000070 03 e2 37 bf 2a 57 1f 3e 90 46 0f bf b5 1d 1f c0
       -0.7182924 0.15560594 -0.55967045 -2.4861882
000080 a6 83 00 bf ae 7c 37 3f 48 1e 11 bf db 4e 2d bf
       -0.5020088 0.7167462 -0.5668683 -0.6769845
000090 89 4d 81 c0 da c0 d5 be 3c 1f f4 be 79 59 1b be
       -4.0407147 -0.41748697 -0.4768008 -0.1517085
0000a0 ed ed 13 c0 6f c2 63 3e e9 7b 0f 3f 02 f0 10 3f
       -2.3113968 0.2224214 0.56048447 0.5661622
0000b0 f2 fc 2d 3e 55 68 04 bf d9 f2 4f 3f 0e 0d ed be
       0.16991022 -0.517217 0.8122993 -0.46299022
0000c0 d2 6a e3 3d 84 ce a0 3f 28 10 fb 3e 75 65 0a bf
       0.11104359 1.2563024 0.49035764 -0.5406106
0000d0 a1 0b 11 bf 31 6e 98 bf 13 ab c9 bd 15 53 7f bf
       -0.5665837 -1.1908628 -0.09847083 -0.9973615
0000e0 c9 8a 1e bf f9 92 58 3f ae 34 de 3e 6c f0 07 bf
       -0.6193052 0.8459926 0.43399566 -0.5310123
0000f0 15 80 df be a7 fd 23 bf 95 c8 91 bf 0c dd ff be
       -0.43652406 -0.6405892 -1.1389338 -0.49973333
000100 98 92 c9 be 4a 49 d3 be a5 ef 1d 3f f0 6a 3f bf
       -0.39369655 -0.41266853 0.61693794 -0.7477255
000110 6c cf f0 3e 76 53 ae bd 58 6a a4 3d 2f 21 a1 be
       0.4703325 -0.08512013 0.08028096 -0.3147063
000120 f2 62 42 bf 79 3b 10 bf 5f a0 9b 3d 4b e8 9a bf
       -0.7593223 -0.5634075 0.07598948 -1.210214
000130 c3 9b 56 be 4b f1 4c bf fb 22 8b bf a1 48 33 bf
       -0.20957856 -0.80055684 -1.087005 -0.700327
000140 df 58 af 3f 64 d7 02 bf 3b 3b db be 25 aa 19 bf
       1.3698996 -0.5110991 -0.42818627 -0.60025245
000150 c9 b1 95 be ba 2a 1a ba d4 0e 74 bf 12 93 c8 be
       -0.29237202 -0.00058810005 -0.95335126 -0.39174706
000160 ac 61 c1 bf bc 48 1c bf 11 2c bb be d2 3b 0a be
       -1.5107932 -0.61048484 -0.36557057 -0.13499382
000170 b7 d7 12 3f 57 97 f8 be 74 63 56 3e d7 0b e5 be
       0.57360405 -0.48552963 0.20936376 -0.44735596
000180 55 38 28 3f 22 15 e6 ba d9 6c 9e bd 09 85 76 c0
       0.65710956 -0.0017553905 -0.07735605 -3.8518698
000190 cc 8f 6e bd b1 c1 f4 3e 1a 8b 09 bf 8e 23 c6 bc
       -0.058242604 0.47804025 -0.5372788 -0.024186876
0001a0 9e 9f 83 be 8c bd fe be 53 16 4f be 98 e5 18 c0
       -0.25707716 -0.49753988 -0.2022336 -2.3890133
0001b0 da a8 90 bf 43 e5 ed bf 2a 26 da be 89 5c 36 bf
       -1.130153 -1.858559 -0.42607242 -0.7123495
0001c0 5f ec 1a bf b4 eb 51 bf 91 ff 25 bf 7f 19 12 bf
       -0.60516924 -0.8200028 -0.6484309 -0.57070154
0001d0 51 01 0f bf 61 e0 67 3e c3 80 bc be 2a b4 2f be
       -0.55861384 0.22644188 -0.36816987 -0.17158571
0001e0 a6 97 07 bf a6 51 49 3e 4d db 21 bf 2c ec 03 be
       -0.5296577 0.19660053 -0.6322525 -0.12883061
0001f0 be a7 5d bf 7f 86 be be 36 2a ff bd 0a 6b 2e bf
       -0.8658408 -0.37211987 -0.12459223 -0.6813208

fc2.weight f4 [64, 128]
000000 45 ab 1a be 60 69 ee bc a0 a4 a9 be 7c a5 0c bd
       -0.15104397 -0.029102981 -0.3313341 -0.034337506
000010 6a 11 0b 3e fd a3 5d 3e b7 f3 a3 3d c7 b2 76 bd
       0.13580862 0.21644588 0.08005469 -0.06022909
000020 cb 33 87 be fa 7e 08 3c 8d 47 34 3d 30 d0 c1 bd
       -0.26406702 0.008331055 0.04401355 -0.09463537
000030 3f 5f f4 bd a4 39 5c ba 83 9e bb bd 9c 8b 49 be
       -0.11932229 -0.0008400923 -0.09161093 -0.19682163
000040 0c 23 97 bd 59 b3 0e be 2f ac 1c bd 02 b9 7c be
       -0.073797315 -0.13935603 -0.038250145 -0.2467995
000050 1a a8 30 3d 5c 87 e2 3d 22 8c c0 bd 8e 9d 1d be
       0.043129064 0.11060974 -0.09401728 -0.15392134
000060 73 3e bc bd ba 5f cc bd 41 ab a2 be 1f 30 ef bd
       -0.09191599 -0.09979196 -0.3177128 -0.116791
000070 0e 17 6b be 15 c5 05 be f4 be c6 bc 2d 15 83 bd
       -0.22958013 -0.13063462 -0.024260975 -0.06400523
000080 42 2b 86 be 52 b0 d2 3b 01 5c 3f be 3b f6 13 bd
       -0.26204878 0.0064297104 -0.1868744 -0.036123496
000090 39 95 86 bb 57 0b e4 bd 17 72 fe ba f7 a5 45 bd
       -0.004107144 -0.111349754 -0.0019412664 -0.04825398
0000a0 4c 43 57 be 2d fa f2 bb 60 a9 d6 3c 78 6e e6 bd
       -0.21021765 -0.007415077 0.026203811 -0.11251539
0000b0 f1 6d 14 be 1e ff f3 bd db 9e d8 be 71 9f 79 bd
       -0.14495064 -0.11913894 -0.42308697 -0.06094307
0000c0 9f c9 23 be 90 c4 aa bd cc 25 a3 bd 51 19 f1 bd
       -0.15994881 -0.083382726 -0.079661936 -0.11772407
0000d0 2b 21 22 be ed 6b 07 be 8f 0a e8 bd 24 db 55 bd
       -0.15832965 -0.13224764 -0.11330139 -0.052210942
0000e0 18 d0 d5 bc 2e 03 c2 bd b7 d0 e7 bc 9c 20 6b bd
       -0.026100203 -0.09473263 -0.028297765 -0.057404146
0000f0 0f e0 b8 bd 20 4c f4 bd 50 70 d6 bc 7d 7b 6e bd
       -0.09027111 -0.11928582 -0.026176602 -0.058223236
000100 44 ac 47 be 4b 69 d4 bd 51 ad dc bd e0 ac 25 be
       -0.19499308 -0.103716455 -0.10775245 -0.16179228
000110 a6 fa 35 bc b0 a5 92 3d 3c 9b 55 bc cd 42 ba bd
       -0.0111071225 0.07160509 -0.013037499 -0.090947725
000120 75 67 cb bd 47 da 16 bb c3 64 d7 bd 49 b1 aa 3c
       -0.09931842 -0.0023018287 -0.10517266 0.02083649
000130 01 dc c5 bd a5 2d 11 3e 67 54 1e be 0b d1 34 be
       -0.09661103 0.14177568 -0.15461884 -0.17657869
000140 7d a6 80 be 78 71 48 3c 89 a2 7c 3d e5 9f 07 be
       -0.2512702 0.012234084 0.061678443 -0.13244589
000150 e6 19 58 be a6 2c 11 be f1 53 4e bd 16 3c 5c 3e
       -0.2110363 -0.14177188 -0.05037302 0.21507296
000160 61 82 1c bd a0 7b a2 bd 08 bc e3 3c 34 8a f2 3c
       -0.038210277 -0.07933736 0.027799621 0.029606916
000170 bc 1e d8 3d 7a cb 9f 3c ad 14 18 bd e2 5f 04 3c
       0.10552737 0.019506205 -0.037129093 0.008079501
000180 0e 99 8e bd 1e 69 2e be 6a 48 7d 3b 3c 5f 84 3e
       -0.069627866 -0.17032287 0.0038647898 0.25853908
000190 ec b2 d3 bd 8c 29 0c 3e a1 7e c5 bd b5 0f f5 3c
       -0.10336861 0.13687724 -0.09643293 0.029914716
0001a0 5d 5e 27 bd 9b 24 e9 bd b5 63 02 be 37 f7 92 bd
       -0.040861476 -0.11383935 -0.12733348 -0.07176059
0001b0 55 0b c8 bd 1a 68 0f 3c 1b 7c 19 be 55 cb 42 be
       -0.097677864 0.008752847 -0.14988749 -0.19022878
0001c0 44 94 3c 3a fd 43 55 3d 81 e0 15 be 59 70 2e be
       0.0007193724 0.05206679 -0.14636423 -0.17035045
0001d0 50 05 52 bd 1f 93 28 be 18 13 3a be fb 54 cc 3d
       -0.051274598 -0.16462372 -0.18171346 0.09977146
0001e0 34 d2 c4 bd 3e 11 37 be ef fa ef 3c 26 55 df bd
       -0.096104056 -0.17877671 0.02929446 -0.10904913
0001f0 01 49 b1 bd 2a de 7c be e7 37 96 be 20 b8 cb bd
       -0.086565025 -0.24694124 -0.29339525 -0.099472284
000200 4d e6 d7 3c c0 08 8a 3c e8 9d a6 3e fb 15 b0 bd
       0.026354933 0.016849875 0.32542348 -0.085979424
000210 2c 8c f6 3d 81 89 74 3d cd 68 58 3d 46 82 86 bd
       0.120384544 0.059701446 0.05283432 -0.065678164
000220 21 9a bf bc 17 cc 39 3c 56 47 cb bb 99 7c 21 3e
       -0.023388924 0.011340163 -0.0062035723 0.15770186
000230 c0 0c fb bc 2f 3d 8f bc e4 5a 5d bc 76 65 03 3e
       -0.030645728 -0.01748523 -0.01351044 0.12831673
000240 eb 4e 17 3d c7 10 52 3e 16 b0 95 bb 06 bf 25 bd
       0.036940496 0.20514213 -0.00456811 -0.040465377
000250 e5 07 96 3d 4f c9 ba 3d 60 5b e7 3e 74 a7 8b 39
       0.073257245 0.09120428 0.451869 0.00026636908
000260 78 b1 a2 3b a1 2f 1c 3e ee 8a 91 bc 96 0b 58 3d
       0.0049650036 0.15252544 -0.017766442 0.052745424
000270 dd 21 39 3e 08 10 d6 3d 3e 6c 55 bd 99 31 a3 bc
       0.18079324 0.104522765 -0.05210518 -0.019921111
000280 f4 8b 9d 3c 20 73 bc bb 13 d5 74 bc 86 84 cf 3d
       0.019231774 -0.0057510287 -0.014943379 0.10132699
000290 17 a9 f0 bc b9 da d6 3d a8 ad ba bc 06 34 8b 3c
       -0.029377503 0.10490937 -0.022787884 0.01699258
0002a0 00 86 d7 bb 1c 7a 59 3c 97 4f 5a bd 08 7c 3b 3d
       -0.0065772533 0.013273742 -0.05329856 0.045772582
0002b0 99 8a 8b bc e4 6f 27 3d 64 93 f3 3c 3f 13 dd 3d
       -0.017033862 0.04087819 0.029733367 0.107946865
0002c0 1e 77 95 bd 29 22 bd 3e b4 f8 58 3a df 47 39 bf
       -0.072981104 0.36940125 0.0008276806 -0.7237529
0002d0 f6 bb f9 3d 5d 0a 19 3d 98 aa ba 3c a6 e6 3c 3c
       0.12194054 0.0373634 0.022786424 0.0115296
0002e0 4b 4d 06 3e c0 4a 6d 3c 59 1c 5f 3d 9c 98 8c 3f
       0.13115422 0.014483154 0.054470394 1.0984073
0002f0 c0 48 9d 3d 25 8c 00 3e dd be 0f 3e fb dc d7 3d
       0.076798916 0.12553461 0.14037652 0.105401956
000300 07 95 a4 ba 3a 07 b3 3d 10 58 46 3e f9 9e 1d 3e
       -0.0012556621 0.08741613 0.1936953 0.15392675
000310 46 76 15 be 44 0e 06 3d f2 fb 2e bc 99 f6 33 3c
       -0.14595899 0.03272845 -0.010680186 0.010984086
000320 0c f3 73 bd 2f 42 0e 3e f1 97 0b bc 29 da 1e 3e
       -0.05955796 0.13892435 -0.008520112 0.15512909
000330 97 c2 86 3c 53 da b8 3d 7d a8 ed bc 43 51 22 bd
       0.01645021 0.09026017 -0.029011006 -0.03962828
000340 21 73 bc be 26 a7 83 3d fb e2 5d bd 37 31 ec 3c
       -0.36806586 0.064283654 -0.054171544 0.028832061
000350 c2 e9 12 3e 47 6d 31 bc fb 9e 25 3e ac 7f 9f 3d
       0.14346984 -0.010829276 0.16173927 0.07788023
000360 38 dc 6b bd 94 6d c9 3d d2 fc 89 3d c3 05 3a bd
       -0.057583064 0.098353535 0.06737675 -0.04541565
000370 8a 2a 92 bc a7 91 61 3d c2 bd ef bb da 60 7a be
       -0.01784255 0.055070546 -0.007316322 -0.24451008
000380 5d 41 8d bc fc ce 5f 3d a3 95 ca bc 1f 47 88 3c
       -0.017243082 0.054640755 -0.024729555 0.016635476
000390 d3 06 35 3e 2e a8 98 3d ab e2 68 bc c2 c3 46 bb
       0.17678384 0.07453953 -0.014214198 -0.0030329083
0003a0 a3 8b f3 3b 45 6f 95 3d 89 4a 01 bd 2a 32 07 be
       0.0074324175 0.072966136 -0.031565223 -0.1320273
0003b0 59 97 cb 3c 61 ac 0d bf 52 35 af bd d3 a5 b7 3d
       0.024852442 -0.55341154 -0.08555092 0.08967175
0003c0 5a c0 10 3d 6c e5 15 3e 4a bb 1b 3e 0b 8e ad 3d
       0.03533969 0.14638299 0.15208164 0.08474358
0003d0 05 9d 11 3e f5 38 06 bb 52 06 75 3d db 05 9a 3d
       0.14220054 -0.0020480726 0.05982048 0.07520648
0003e0 4c a1 32 bb 0d 29 b8 bb cb 31 4e bd 57 78 84 b9
       -0.0027256785 -0.005620128 -0.050340455 -0.00025266662
0003f0 1c 9b dd bc 8f 2b e0 bc f8 d0 54 bc a4 c9 b1 3d
       -0.027051501 -0.02736452 -0.012989275 0.08681038

fc2.bias f4 [64]
000000 81 30 31 be 4d 13 64 3f a5 e9 1e be 4d 79 64 be
       -0.17303659 0.8909195 -0.15518816 -0.22311898
000010 9f 33 b9 3e 61 76 ac 3f 4a 52 2c 3e 77 42 13 3e
       0.36172196 1.3473626 0.16828266 0.14380823
000020 30 5d 91 3e 9b dd f8 bd 83 07 1e 3d 10 37 13 be
       0.2839141 -0.12151643 0.038581382 -0.14376473
000030 95 f4 0d be 21 d7 dd bd d9 ab cb 3f 0c f9 93 3d
       -0.13862832 -0.10832048 1.5911819 0.07225236
000040 41 4e 4c 3f 44 7c 8d 3f ab 0d 12 3e bb 8e 0f be
       0.79806906 1.1053548 0.14263026 -0.14019291
000050 e1 17 f4 bd 96 a7 0a 3f 56 df f5 bf 8a 32 32 3f
       -0.11918617 0.54161966 -1.9208782 0.69608366
000060 d7 5a 1d be 81 60 b0 3f 01 23 42 3d 52 80 92 3d
       -0.15366684 1.3779451 0.047396664 0.071533814
000070 c6 77 c5 3e 60 b6 b5 3d 9a 39 fa 3d 0e 53 12 be
       0.38567942 0.08872676 0.12218018 -0.14289495
000080 c9 7a 6a bd b3 d3 5e bd 98 cc ca 3e f0 b2 a7 3e
       -0.057246003 -0.05440111 0.39609218 0.32753706
000090 f1 7f 1d be 65 36 13 be b9 af 0d 3f 38 59 03 be
       -0.15380837 -0.14376219 0.55346256 -0.12827003
0000a0 55 df 89 3e 4d 53 1b be 79 00 38 3f 70 42 e3 3e
       0.269282 -0.15168495 0.7187572 0.44386625
0000b0 35 64 dc 3f 40 ad 0f be 66 9d bb 3e b3 83 07 c0
       1.7218081 -0.14030933 0.36643523 -2.1174133
0000c0 ce 15 c8 3d a7 fd 04 be 87 01 2c be 43 d6 30 3e
       0.09769784 -0.12987386 -0.16797458 0.17269234
0000d0 fb 21 aa be af 98 29 bd e9 86 98 3f 49 89 05 be
       -0.3322905 -0.041405376 1.1916171 -0.13040651
0000e0 c1 e3 17 be 40 2f 67 3f 20 47 76 be 99 ca 95 3e
       -0.14832975 0.9030647 -0.2405057 0.29256132
0000f0 12 a6 22 be ba 9e ec bd 98 0d 2c 3e ab 68 27 3e
       -0.15883663 -0.11553712 0.1680206 0.16348521

fc31.weight f4 [50, 64]
000000 d9 c9 ab 3d 23 03 91 ba 16 87 88 3d d7 6e ff bd
       0.08388109 -0.0011063557 0.066663906 -0.12472313
000010 85 dc a0 be ec c0 a3 3b a0 3e 5c 3b 40 86 14 3b
       -0.31418243 0.0049973633 0.0033606663 0.0022663027
000020 8b c4 12 3a 39 38 06 3e d0 63 83 bb 8d 3c 0f 3d
       0.0005598745 0.13107385 -0.0040097013 0.034969855
000030 0e 43 55 bd e4 1b 0d 3e 99 d0 c2 bb 23 c3 0d 3b
       -0.0520659 0.1378017 -0.005945277 0.0021631203
000040 42 4e 9b bb ce e6 82 3a b1 10 4a bb 01 e0 34 3e
       -0.0047395537 0.0009986998 -0.0030832703 0.17663576
000050 f1 17 e2 bd e2 3a 43 bb 88 d8 a9 3b 37 31 01 39
       -0.11039723 -0.0029789736 0.0051832832 0.00012320733
000060 44 cf 58 be 0b 57 bc 3a ba 75 b3 3a 0c 6d c6 ba
       -0.21172816 0.0014369203 0.0013691701 -0.00151387
000070 e8 be c4 bb 12 8a 2c 3e d5 3c 0e 3b d9 f6 a2 3d
       -0.006004203 0.16849545 0.002170374 0.07957239
000080 78 6a 82 3b bf b0 ca b9 3d 81 a0 b9 a1 b2 78 3b
       0.003979977 -0.00038660128 -0.00030613868 0.0037948268
000090 05 6e eb bc 98 45 6a 3c cb 3b 95 ba ec 17 23 3a
       -0.028738985 0.014298819 -0.0011385618 0.0006221521
0000a0 61 65 9f ba 72 f4 28 be c5 76 54 bb 2f 15 14 ba
       -0.001216095 -0.16499498 -0.0032419425 -0.00056489086
0000b0 6c cf e0 bb ef 4e a2 3d c3 5d 07 3a 8f 03 cd bb
       -0.006860664 0.07925212 0.0005163813 -0.0062565277
0000c0 eb aa f9 bd 5f cd 82 3b b7 27 8f 3d 8c d7 ae bb
       -0.12190803 0.0039917673 0.06989997 -0.005335754
0000d0 bb 5f 07 bb 1a 69 1a bb 58 f3 2e 3c 1a fd 35 be
       -0.0020656425 -0.002356118 0.010678135 -0.17772332
0000e0 3f 04 93 3d 6e 23 e3 bb c0 98 a8 bd e6 41 1f bb
       0.07178544 -0.006931714 -0.0823226 -0.0024300753
0000f0 40 0f 01 be 2c 6f 30 3d f7 f8 e3 ba a2 4e 46 bb
       -0.12603474 0.04307477 -0.0017392923 -0.003025927
000100 62 14 64 3d 9f 74 eb 3b 34 48 3f bd 67 35 e0 3d
       0.0556835 0.007185533 -0.046699718 0.10947686
000110 50 d3 6c 3d d8 58 d1 3b dd 28 d5 3b 67 38 66 3b
       0.05781871 0.006388765 0.0065051154 0.0035128833
000120 d7 4c 25 bb 5c a4 57 3e 6e 7f c3 3a 36 cb 28 3d
       -0.0025222802 0.21058792 0.0014915296 0.041209422
000130 9d ca 8d 3e 35 d0 5c bd 81 98 f7 3b 2f ed 20 3b
       0.27693644 -0.0539095 0.0075560217 0.0024555435
000140 3e 05 af 3a 27 20 e8 3b 4c af 39 bb f8 1f b1 3d
       0.0013353003 0.007083911 -0.0028333245 0.08648676
000150 f0 f4 fa bd 83 68 8f bb 1c d8 15 3a 56 be ae bb
       -0.12253749 -0.0043764724 0.0005716102 -0.0053327484
000160 a8 d7 7e 3e ec 5b c8 bb 77 d8 0e 3b 71 93 b1 3a
       0.24886954 -0.0061144736 0.0021796504 0.0013547969
000170 a2 c1 cd ba 8a af 30 3e 42 a0 9d b8 15 0a 9a 3c
       -0.0015697966 0.17254463 -7.516194e-05 0.018803636
000180 24 7c 1d bb 5e eb 8c 3b a9 60 1b 3b 5e 32 7f 38
       -0.0024030292 0.004300519 0.0023708737 6.0843646e-05
000190 8d f8 48 3e 5e e6 fc bd 4e f6 c7 b9 d3 47 86 3b
       0.19626065 -0.123486266 -0.0003813975 0.0040979176
0001a0 15 97 c1 ba f2 8b 3c be 94 01 8a bb 45 6f 25 bb
       -0.0014769757 -0.1841276 -0.004211614 -0.0025243324
0001b0 1f 5c 3f 3c 5b 1e d2 3e 99 b8 a2 3a 75 87 bf 3c
       0.011679678 0.41038784 0.0012414634 0.02338002
0001c0 bc 4b e0 bd 93 51 77 3f a5 e7 db be 9d 67 50 bc
       -0.10951945 0.9660885 -0.42950168 -0.012720016
0001d0 30 a4 5e bb e3 cc 8c 3a 0c 35 e5 3b 95 7d 81 be
       -0.0033972375 0.0010742213 0.006994849 -0.25291124
0001e0 eb 4f ab be f0 e9 80 3a de 12 61 bd 5a 46 38 3b
       -0.3345941 0.0009835344 -0.054949634 0.0028118105
0001f0 96 7f b4 3d 9a fa a7 3d ff db e7 3b ad f6 0d bb
       0.088133976 0.08202095 0.007075786 -0.0021661923
000200 04 0d 4b 3e f8 0a 60 3b eb f0 3e 3d 4a f1 b3 3d
       0.19829184 0.0034186225 0.046616476 0.087862566
000210 90 fc f6 3c ef be 3a bc 9c 87 eb bb 57 4a 10 3b
       0.030149728 -0.011398061 -0.0071877968 0.0022016966
000220 78 98 ca 3a 25 7a 9a 3c 7a 7f 81 39 be 5e bf 3d
       0.0015456816 0.018857071 0.00024699775 0.093442425
000230 f4 4f 92 3c 6e 36 0e 3e 6e ba 69 3c f9 d7 3e 3b
       0.01786039 0.13887951 0.01426564 0.002912043
000240 69 87 76 39 9e 76 b4 ba 1f 61 04 bb 6f 16 04 3e
       0.00023510832 -0.0013768261 -0.002019949 0.12899183
000250 55 bd 64 bd e0 00 8b 3a 38 32 e2 ba e7 9a 58 bb
       -0.055844624 0.0010605119 -0.0017257398 -0.0033051313
000260 59 a1 12 3e d1 f4 c0 3a 18 bd ac ba 86 15 09 bb
       0.14319362 0.0014721398 -0.0013178913 -0.002091737
000270 e6 c4 e2 bb cc a2 7a bd ae e0 6c 3b 8a f4 5b 3e
       -0.006920445 -0.06119041 0.0036144662 0.21480003
000280 db b3 2f bb 61 a0 c5 3b e0 dd 6c 39 33 e2 1d 3a
       -0.0026810083 0.0060310815 0.00022589369 0.0006022781
000290 7c 84 ea bd 1b 75 51 3d bd 7b 8b 3a c1 9e a8 39
       -0.11451051 0.05113707 0.0010641735 0.00032161738
0002a0 37 9c ca 3a 87 e3 0b 3e 29 b7 71 3b 05 8d 6c ba
       0.0015457933 0.13661014 0.0036882854 -0.0009023699
0002b0 be 8e 82 bc 4a 6b 81 3c 60 d4 53 ba 5d 9a 80 bc
       -0.015937205 0.01579823 -0.00080806576 -0.015698606
0002c0 a2 da 45 be b4 09 e7 3d f6 65 99 3d d2 5c 81 3b
       -0.19321683 0.112811476 0.07490151 0.0039478326
0002d0 f7 bc ae bb e7 b7 8b bb 7a 44 a5 3b 28 91 a4 bd
       -0.005332585 -0.004263866 0.0050435634 -0.08035499
0002e0 4b a0 22 3e b1 42 83 3a 7e 73 08 be ec 6f 19 bb
       0.1588146 0.0010014382 -0.13325307 -0.0023412658
0002f0 e8 0e 92 be c9 e3 a6 3d e1 bf e7 bb 21 f3 be 3b
       -0.28526998 0.08148915 -0.0070724343 0.005827323
000300 d9 37 07 bd c7 f8 ae 3b 46 6d 28 3e d2 e5 4d be
       -0.033012245 0.005339715 0.16447935 -0.201072
000310 60 8e d6 3c 73 b4 41 3c 13 28 2b bb 84 43 d2 ba
       0.026190937 0.011822808 -0.0026116415 -0.001604185
000320 b0 f9 d2 ba b0 be ff bc 3e 01 e5 39 8e 0d e7 bd
       -0.0016096141 -0.031218857 0.0004367921 -0.11281882
000330 b6 d3 a7 3d 36 f4 04 3d 84 5b 81 38 6a e9 83 bb
       0.081946775 0.03245946 6.1682455e-05 -0.004025628
000340 7e 84 bf ba d9 f9 86 bb f1 88 98 3a c6 16 a2 bc
       -0.0014611629 -0.0041191396 0.0011637491 -0.01978625
000350 53 9e 96 bb c1 ba 3e ba 9a 89 de 3b 63 47 df 3a
       -0.0045965104 -0.00072757533 0.0067913057 0.0017034825
000360 a9 73 53 be 50 21 78 bb c7 7e bc 3b 2f 83 e2 ba
       -0.2064959 -0.0037861653 0.0057524177 -0.0017281527
000370 32 40 eb 37 7a e7 dd 3d 3c 93 59 3b 35 f7 58 3e
       2.8044076e-05 0.10835166 0.003319933 0.21188052
000380 6b 30 8f 3b 51 68 2f 3c 3f aa d1 b9 ac e1 4f bb
       0.0043697855 0.010706023 -0.0003999043 -0.0031720204
000390 22 e1 cd 3d 0e 15 27 3e b4 f2 80 3a 88 79 1e 3b
       0.10052706 0.16316625 0.0009837956 0.0024181325
0003a0 cf 03 bc ba e2 33 ad be 47 ce 0b bb 8b 32 cd ba
       -0.0014344397 -0.33828646 -0.0021332668 -0.0015655322
0003b0 ba 3b 07 bc 65 1a 5c 3e 31 dc de 3a b6 ca 25 bc
       -0.008253986 0.21494444 0.0017002878 -0.010119131
0003c0 33 85 80 bd a4 a7 05 3e 2c b9 63 be a0 44 6d 3b
       -0.06275406 0.13052231 -0.22238606 0.0036204234
0003d0 7c 7b a0 3a 46 68 e3 3b 08 33 a3 bb b2 44 eb bc
       0.0012243832 0.0069399206 -0.0049804486 -0.02871928
0003e0 a5 bf d5 3c af 40 9a 3b ae 0a e9 bd cf 22 5f 3b
       0.02609236 0.004707418 -0.1137899 0.0034047847
0003f0 1a 0f 5d 3d 87 9d fc 3d af 28 04 bc f5 5e e4 bb
       0.05396948 0.123347335 -0.00806634 -0.0069693276

fc31.bias f4 [50]
000000 86 22 98 3b ce 6a a2 bc 43 1e a9 3b 48 7e ec bb
       0.0046427874 -0.019826319 0.005161078 -0.0072172023
000010 b8 23 c0 ba 99 d7 b5 3d 0f 0f 4f 3c fe d6 99 bd
       -0.0014659083 0.088790126 0.012637868 -0.0751171
000020 0c 29 ab bb 37 be 8e bb 87 9c df bb 3d 18 0e 3e
       -0.005223399 -0.0043561715 -0.0068240794 0.13876434
000030 95 35 55 bb f7 85 97 bb 75 f9 e0 bb 0d 95 00 bc
       -0.0032533158 -0.004624124 -0.006865675 -0.0078480365
000040 69 c1 14 3d a2 49 4d 3f cc 07 09 3c d3 85 dd ba
       0.036317263 0.8019048 0.008363675 -0.0016900845
000050 ae dd 5f 3f 7f 31 b2 be 2a 5f 0e 3c 1b 93 ea be
       0.8744763 -0.34803388 0.008689681 -0.45815358
000060 48 36 26 bc ef d6 08 3f f9 3a 57 bf dd 0d 8b bb
       -0.010144778 0.5345296 -0.8407436 -0.004243596
000070 26 d4 8c 39 d3 c8 b1 bb d2 90 a2 be bd a5 a8 ba
       0.00026860944 -0.0054255514 -0.31751114 -0.0012866777
000080 88 d5 22 bf e3 7b e5 3e fc cd b3 bd db c8 9b 3b
       -0.6360707 0.4482108 -0.08779523 0.0047541684
000090 e0 c8 b2 bb cc 17 a1 3b a2 28 be 3e 48 1c 13 3d
       -0.005456075 0.004916167 0.37140375 0.035915643
0000a0 c3 a2 1a 3b 37 6f 47 3b d9 8f 25 be 66 88 02 3c
       0.0023595549 0.003043128 -0.16168155 0.00796709
0000b0 04 9b 8a be f4 2b 90 3e eb 0e 80 3e e7 c0 b1 3e
       -0.27071393 0.28158534 0.25011382 0.34717485
0000c0 32 65 18 bf ee d1 fb 3e
       -0.5952941 0.491836

fc32.weight f4 [50, 64]
000000 fb 71 86 be a8 9c be 3a dd e3 8e 3e c4 9d d8 3e
       -0.26258835 0.0014542537 0.2790822 0.42307866
000010 8a 15 0b be 47 79 4f 3c 69 57 ba 3b d4 85 af 39
       -0.13582435 0.012663192 0.0056866896 0.0003347831
000020 0b 58 07 3b e3 b6 38 bd 16 a9 70 3b 43 a3 f0 bd
       0.0020651843 -0.04509629 0.0036721877 -0.1174989
000030 b8 a2 56 3c 3e 0f ca bd 43 ce ef bc 6d 6b 28 3c
       0.013100319 -0.098661885 -0.029273158 0.010279519
000040 69 4f 96 bb 2b 6c 2d 3c c3 5e 2d 3b 28 e1 6f 3c
       -0.004587103 0.010584871 0.0026454187 0.014641084
000050 e5 f8 9f 3d 11 ef e2 3b 19 61 0c bc 6c 9a 34 3a
       0.07811145 0.0069254716 -0.008568072 0.0006889466
000060 8c 35 8d 3d 9f 4d 0d bc 76 13 50 3b f6 7d 14 bb
       0.06894979 -0.008624463 0.003174988 -0.0022658086
000070 31 81 35 bc 85 16 e0 3d bf ec a7 3b eb e4 4f 3d
       -0.011078165 0.10941795 0.005124658 0.050755423
000080 35 ce ad bb 6f a6 21 ba e7 75 1b bb 64 6d a3 bb
       -0.005304123 -0.0006166463 -0.0023721398 -0.0049874056
000090 6d 50 f0 3d b1 3b 3a be 13 db 60 39 71 ac 1c 3c
       0.1173409 -0.18186833 0.00021443916 0.009562598
0000a0 ab 48 a6 ba b8 2f d1 3e 13 1f 02 b9 f9 31 7b bb
       -0.0012686452 0.4085672 -0.00012409342 -0.0038329347
0000b0 c8 f4 8c 3c 3e b0 58 be 5d ec eb 3b 7d a5 46 3d
       0.017206565 -0.21160981 0.0071998076 0.048497666
0000c0 16 b4 de 3d d6 94 b1 be b5 2a eb 3d d4 98 df 3b
       0.108741924 -0.34683865 0.11482755 0.0068236385
0000d0 fe 59 4a 3c 42 c4 79 3b 32 8b 2d bb 91 c3 62 3e
       0.012350557 0.0038111364 -0.0026480672 0.22144915
0000e0 52 ec 07 3e 47 93 78 3a 60 de 9f bc db 6d eb bb
       0.13273743 0.0009482395 -0.019515216 -0.0071847267
0000f0 c7 ba 02 be 4c 54 a3 be 40 b8 8a 3b be 27 bd 3a
       -0.12766562 -0.3190025 0.00423339 0.00144314
000100 a0 6d 0c 3d 4f 0b 83 bc 74 48 b2 3d 20 3f ca 3d
       0.034284234 -0.015996603 0.087052256 0.098753214
000110 c1 97 3a be a2 a8 00 3c c3 ec 57 39 98 4e ea ba
       -0.18221952 0.007852705 0.00020592198 -0.0017876206
000120 b5 9c 37 bc 08 3e 8a bd 6d e5 09 3a 00 21 eb bd
       -0.011206795 -0.06750113 0.00052603224 -0.114809036
000130 43 0c 87 be 83 49 d6 bc 77 25 af bc 14 f3 3e 3a
       -0.26376542 -0.0261581 -0.02138017 0.0007284146
000140 a0 e0 2a 3c 28 35 c9 b8 89 eb 58 bb 8a f5 97 bd
       0.010429531 -9.594328e-05 -0.0033099374 -0.0741988
000150 4c cd 27 be 21 7e 22 bb aa 26 9a 3c 5b dd a1 bb
       -0.16386908 -0.0024794417 0.018817265 -0.0049397177
000160 a6 ef 60 be 9a 91 32 bc 6c 11 05 3c 6b 02 54 3b
       -0.21966419 -0.010898972 0.0081218295 0.0032350074
000170 7a ce c3 bc c6 5f 68 be 31 bf 59 ba ee 16 71 3e
       -0.023902167 -0.22692785 -0.0008306383 0.23543903
000180 cb 24 93 3b e9 81 a6 bc 8a bf d3 3b 28 a8 69 bc
       0.00449047 -0.020325618 0.006462042 -0.014261283
000190 96 60 e1 3b a6 de 81 be d2 60 18 3c d8 d3 25 bb
       0.006877969 -0.2536518 0.0093004275 -0.002530327
0001a0 e9 52 d8 3b 7a d7 25 3c a1 65 99 3b 0b 04 df bb
       0.0066016805 0.010122174 0.0046813046 -0.006805902
0001b0 dc 25 34 3c e8 ac 46 3c 8d 8b 9d 3b 0e 4a 71 3d
       0.0109953545 0.012126185 0.0048078955 0.058908515
0001c0 c2 88 86 3d 60 99 f0 bd 2e 74 d2 3d 78 a0 50 3c
       0.06569053 -0.11748004 0.10276066 0.012733571
0001d0 e1 64 13 3c c5 77 2f bb 28 8a b3 3c e4 31 08 3c
       0.008996219 -0.002677427 0.021916464 0.008312676
0001e0 02 d9 a4 3d e1 e2 d4 bb 65 d8 24 3e 4f e7 30 3a
       0.080492035 -0.0064967726 0.16098173 0.0006748335
0001f0 7d 0c d8 bd 71 58 c2 bd 70 87 32 3c 63 8c 02 bc
       -0.10549257 -0.09489525 0.010896549 -0.007968041
000200 67 e8 9b 3d e5 bc 00 3c a3 5a 51 3e c5 71 f0 3e
       0.076126866 0.007857536 0.20444731 0.469618
000210 62 7c 23 3d fd dc 27 bc 69 7d 2d bc 9a 56 71 3b
       0.039913543 -0.010245559 -0.010588982 0.00368253
000220 7f 96 e1 3b 16 fd 30 3e 8a 63 a7 bb 28 d1 4c bd
       0.0068843956 0.17284045 -0.0051083015 -0.050004154
000230 92 23 91 bd fa bf 2d bb 56 6f cb 3c 42 8f ea 3a
       -0.070868626 -0.0026512132 0.024833363 0.0017895477
000240 93 96 39 bb d3 c1 97 3c a3 12 19 3b e6 c9 94 3e
       -0.002831851 0.01852504 0.0023357056 0.29060286
000250 d1 2e 03 be e2 6f 61 3b 17 2f 0f bc 92 71 0c bc
       -0.12810828 0.0034398963 -0.008739254 -0.008571999
000260 50 15 c8 be 46 8f b9 3a a3 5a b6 bb af 4e 2a 3b
       -0.3907876 0.0014157079 -0.005565004 0.002598684
000270 b0 f9 07 3a dd 0b 03 3f e3 c3 1a bc 3d 63 ec 3e
       0.00051870476 0.51189977 -0.009446117 0.46169463
000280 e3 6f 53 bb 0b a5 c9 3a 85 e0 f9 3b 8b da 6a 3b
       -0.0032262735 0.001538427 0.0076256418 0.0035835828
000290 27 81 47 bd 5e 99 66 be 33 3e 86 bb da aa 7d 3b
       -0.048707154 -0.22519442 -0.00409677 0.0038706572
0002a0 9b cc c7 3b 8b 3e 8d 3d 15 25 94 bb 6e 3a 34 3b
       0.006097389 0.06896695 -0.004521022 0.0027500647
0002b0 d5 57 cb 3c 8d cf 24 bd 25 db df 39 e4 46 3d 3b
       0.024822155 -0.040237 0.0004269715 0.0028881365
0002c0 0f 6c 21 3e 2d df 5f 3d 1a e9 f9 3e 15 54 4e 3a
       0.15763877 0.054656196 0.48810655 0.00078708056
0002d0 a8 ac 6c ba 3e 2f d3 3b e6 d6 1c bc 7b c5 e5 3c
       -0.00090284133 0.0064448407 -0.00957272 0.028048268
0002e0 d3 58 a1 3e eb ba 3f 3b 99 ac 68 be 5f ec 5b bb
       0.3151308 0.00292557 -0.22722091 -0.0033557636
0002f0 62 e3 50 be 29 e4 e8 bd 5b d8 1a 3c 45 98 5a 39
       -0.2039924 -0.11371643 0.009450997 0.00020846825
000300 e0 a2 ae 3d 2c fe 8f 3c 5a d9 49 3e 99 c7 91 3e
       0.0852716 0.017577253 0.1971182 0.28472593
000310 f3 23 83 3d 38 b0 9d 3c 3c 0e 0b ba af 92 06 3a
       0.06403341 0.019249067 -0.000530455 0.0005133552
000320 6a ea 87 bb 8b 8f 65 3d ef df eb ba 9c c0 ad 3d
       -0.0041478174 0.056045096 -0.0017995815 0.08484003
000330 50 44 57 3e 0a ac 93 3e 5a dc 55 3b 29 01 e1 3b
       0.21022153 0.28842193 0.003263256 0.0068665934
000340 31 21 ce 3a 99 a7 33 3b 45 63 21 b9 5b 6b b8 3e
       0.0015726445 0.0027413128 -0.00015391137 0.36019406
000350 ac 12 88 bd ba cb 17 b9 c3 8d 41 3c 94 c6 f6 bb
       -0.066441864 -0.00014476376 0.011813584 -0.0075309966
000360 7b 9f 7c be 23 d4 47 3c 50 21 b1 3a 1b 28 cb bb
       -0.24670212 0.012196573 0.0013513956 -0.0061998493
000370 7b 5b 06 bc 50 2e cf 3e c0 ec 8e bb 07 f8 ca 3e
       -0.008200522 0.4046502 -0.004361719 0.39642355
000380 c9 32 33 3c b9 c0 88 bb 22 ad 7f 3b d8 09 a0 3b
       0.010937401 -0.004173365 0.0039013107 0.004883986
000390 d2 96 94 3e aa 3c fb 3c 3d 73 05 bc d8 cd 27 3b
       0.29021317 0.030668575 -0.008145151 0.002560487
0003a0 d6 01 cb bb 7b 15 d3 bd c7 e1 d3 3b 95 dc b1 3b
       -0.006195287 -0.103068314 0.0064661237 0.0054279068
0003b0 39 b2 1e 3c 63 6b ea 3e 96 7f 44 3b f4 7b d5 3c
       0.009686046 0.45785055 0.0029983274 0.026060082
0003c0 25 5f 7d 3e 4d 06 06 3a 0f a8 91 3e 44 17 f6 3b
       0.24743326 0.0005112633 0.2844853 0.0075100977
0003d0 0c f2 3e 3a 24 36 12 bc 57 3c 1d 3c bc e6 86 be
       0.00072839926 -0.008924041 0.009596906 -0.2634791
0003e0 77 54 7b 3e 2c b6 c3 3b c3 0f 95 be 5a 60 52 bb
       0.2454394 0.0059726443 -0.29113588 -0.0032100887
0003f0 cf 4f 66 be 65 27 33 3e 4f c4 04 3d a5 84 af 3b
       -0.22491382 0.17495497 0.032413777 0.0053563886

fc32.bias f4 [50]
000000 71 8c f9 be 8f 05 ae be 02 51 02 bf d1 a1 fa be
       -0.4873996 -0.33988616 -0.5090486 -0.4895158
000010 95 51 fb be e7 33 d0 bd 86 33 fb be d6 cc 20 be
       -0.4908568 -0.101661496 -0.49062747 -0.15703139
000020 c1 4f fd be bb 94 f9 be b2 33 fa be c4 c6 4a be
       -0.4947491 -0.48746285 -0.48867565 -0.19802386
000030 a8 9e f8 be c9 6f fd be e5 e0 01 bf 9e 9e f6 be
       -0.48558545 -0.49499348 -0.50733787 -0.4816789
000040 de d9 39 be 23 74 6a bf 02 07 fe be bc d5 f8 be
       -0.18149516 -0.9158346 -0.49614722 -0.48600566
000050 13 ac 40 be ea 4c 2a be 59 8a f6 be be 3d 31 be
       -0.18815641 -0.16630903 -0.48152426 -0.17308709
000060 17 b2 fc be c2 ce 43 be ab 2d 2e be ab 53 f8 be
       -0.49354622 -0.1912184 -0.17009608 -0.48501334
000070 67 d3 fc be f0 d0 f1 be 96 57 10 be 5c 0c fc be
       -0.49380037 -0.4722972 -0.14095911 -0.4922818
000080 1d 8d 32 be cf 38 61 be 68 40 61 be 00 f0 f3 be
       -0.17436643 -0.21994327 -0.21997225 -0.47644043
000090 63 f8 f6 be 37 db 00 bf 45 53 ee bd 76 f2 1f be
       -0.4823638 -0.50334495 -0.11636976 -0.15619835
0000a0 c3 47 f7 be d7 75 fd be 15 62 2e be 1b bc fa be
       -0.48296937 -0.49503967 -0.17029603 -0.48971638
0000b0 3e 0f 1d be eb 9e b3 bd 06 e3 4c be fe 98 e0 bd
       -0.15337846 -0.087705456 -0.20008478 -0.10966681
0000c0 a3 49 4d be 4f 3f 82 be
       -0.20047621 -0.25438926

fc4.weight f4 [64, 50]
000000 b6 b5 ea b9 3c b3 0c bb 38 45 b6 3a 57 07 81 ba
       -0.00044767343 -0.0021469137 0.0013906127 -0.0009844106
000010 6d fb cc b9 da 39 5e 3d 18 4b fb 38 62 92 e2 3d
       -0.0003909724 0.05425439 0.000119826 0.110630766
000020 6e 5d ff b7 9d 31 94 b9 01 bc 9b ba 14 93 07 bc
       -3.0441875e-05 -0.00028265725 -0.0011881591 -0.008274812
000030 a5 73 80 b9 2d de 98 ba ac 93 98 3a 0a 7b 08 3b
       -0.00024500224 -0.0011662893 0.0011640689 0.002082529
000040 ef 05 92 bd ff 0a 1f bd 8a b8 14 b9 df 9b 3d ba
       -0.07130038 -0.038828846 -0.00014183126 -0.00072330044
000050 31 f4 9b bd b9 a7 19 be e9 3a 4c bb c4 35 9a bd
       -0.07614935 -0.15005387 -0.0031163043 -0.07529786
000060 0c e6 75 3b 57 69 87 bd 0e 56 bb 3d a0 96 cf 36
       0.0037521152 -0.06611889 0.09147273 6.186616e-06
000070 a0 6c 15 bb f8 b2 c2 3a 7b ba bc bd 4b 85 e3 ba
       -0.0022800341 0.0014854362 -0.09215256 -0.001735845
000080 89 45 9d 3d 47 53 fb 3c 72 5a ce 3c e0 5a 96 3a
       0.076792784 0.030679358 0.025189612 0.0011471175
000090 be 42 61 ba 3e e0 8f 3a ab 45 0b 3d 3a a0 32 bd
       -0.0008593014 0.0010976864 0.034001987 -0.043609835
0000a0 d2 9e 19 bb d8 39 13 ba 62 14 95 3d e2 4a 52 b9
       -0.0023440612 -0.00056162244 0.07279278 -0.00020055057
0000b0 4f 18 a0 bc 38 d5 99 bc f9 d1 40 3c ba 56 de 3a
       -0.019542841 -0.018778428 0.011768811 0.0016963102
0000c0 ce 7a 02 3d a9 eb 80 bd 29 12 ff ba 26 cd c2 3a
       0.031855397 -0.062949486 -0.0019460368 0.0014862164
0000d0 29 7a c5 3a 59 0a 70 bb 93 7e 8a b8 6b 81 96 bc
       0.0015066314 -0.0036627261 -6.603929e-05 -0.018372258
0000e0 5e 9f 21 bb f2 d3 3e 3d 16 fa c0 38 d8 ad 74 3a
       -0.002466164 0.046588846 9.2018556e-05 0.0009333766
0000f0 e6 6a 97 ba a7 6b ab 3a 43 70 9b b9 75 2f 00 ba
       -0.0011552244 0.0013078348 -0.00029647545 -0.0004889884
000100 86 5c 41 ba 73 cf 7d 39 7f 6a 94 3d 06 37 52 bb
       -0.0007376153 0.00024205241 0.07246875 -0.0032076254
000110 77 20 22 3a d6 01 1a 38 be 48 a4 bd 65 a2 a6 3a
       0.0006184647 3.671817e-05 -0.08021687 0.0012713192
000120 ef 55 e1 ba 30 69 55 bd 49 52 e2 ba c1 28 58 bc
       -0.0017191748 -0.052102268 -0.0017266955 -0.01319331
000130 76 90 d5 bd f0 69 23 b7 60 22 eb ba c6 3a 03 3b
       -0.10427944 -9.740223e-06 -0.0017939322 0.0020024045
000140 c2 3b 24 be 12 e1 2f b9 f6 6a e8 3c 6f 79 25 3c
       -0.16038421 -0.00016773146 0.028371315 0.010099753
000150 33 be 12 3e e2 ce 48 b9 70 fe 47 b9 50 dc 40 3b
       0.14330368 -0.00019150556 -0.00019072904 0.0029428191
000160 b0 ea 01 be 45 10 cf 3c 3f 7f 33 ba 30 0a 82 b5
       -0.12687182 0.025276313 -0.0006847269 -9.68872e-07
000170 13 c9 d5 3d fa 28 94 3a a7 65 e0 3d 56 4b 75 3d
       0.104387425 0.0011303716 0.10956889 0.0598863
000180 b2 67 3d be 37 ab a0 b7 05 15 ce bd a0 17 a9 3d
       -0.18496588 -1.9153214e-05 -0.10062603 0.08256459
000190 08 e2 f0 bc 5e 8c 39 3b 65 ea 93 ba d8 17 03 3d
       -0.029404655 0.0028312425 -0.0011285065 0.03200516
0001a0 9b d8 3c bc de f0 52 bc 32 63 ee bb f5 f2 df bc
       -0.011526252 -0.01287481 -0.0072750086 -0.02733753
0001b0 71 e3 89 bb 81 8b b5 bc 18 44 93 bc 5c df b6 be
       -0.0042080213 -0.022161247 -0.017976806 -0.35717285
0001c0 87 21 51 bb b7 bc fa bc 58 a8 1b 3d b4 66 3b bb
       -0.0031910853 -0.030607564 0.038002342 -0.0028595151
0001d0 2b 85 ec bc 00 3d b8 3e 33 4f a1 bd 0a c6 d0 ba
       -0.028872093 0.3598404 -0.07876434 -0.0015928161
0001e0 ac 73 9f 3c 4b 2c 8e 3b 10 a2 0c bd ba 93 bc 3c
       0.019464336 0.004338776 -0.034334242 0.02301966
0001f0 57 55 28 3e e5 48 17 3d 7e b2 96 bc 08 0a 57 bd
       0.16438805 0.036934752 -0.018395659 -0.0524998
000200 99 ff e5 3c 30 3c 38 3d de 5f ad 3d b5 ee 85 bc
       0.02807598 0.044979274 0.08465551 -0.016349176
000210 f2 8c 9e bc 50 f1 91 3d fd 03 4b bc 16 a4 d6 bb
       -0.019354317 0.07126105 -0.012391088 -0.0065503223
000220 e2 8f 89 bc 40 4c 38 bc 92 17 12 bb 41 97 dd bc
       -0.016792241 -0.011248648 -0.002229188 -0.027049663
000230 83 c3 d2 bc a4 56 c7 3c 60 5f 67 bd cd f9 8f bd
       -0.025727993 0.024333306 -0.05648744 -0.070300676
000240 a1 97 2c bd b0 23 12 bd ae 01 27 3d c3 53 83 3e
       -0.042136792 -0.035678566 0.040773086 0.25649843
000250 13 47 a0 3c af 76 73 3d b1 ee aa 3b e2 d1 2b 3c
       0.01956514 0.059439357 0.0052164425 0.010487052
000260 1a 6c 13 bd 48 24 f7 3b 08 06 89 3c 45 0f 85 bc
       -0.035991766 0.007542167 0.016726509 -0.016242633
000270 a8 6d 2f bd 29 9e 4b 3b 5f 76 27 bb 3e ac 02 bc
       -0.042829186 0.0031069613 -0.0025552732 -0.007975636
000280 3b 61 24 bd d9 7d fa be 01 28 1c 3d 35 59 06 3c
       -0.04013179 -0.4892414 0.03812409 0.00819998
000290 d7 51 28 bc 26 14 41 bc 8c 20 6f bc 0e 07 54 3e
       -0.010273418 -0.011784589 -0.014595162 0.20705816
0002a0 2d 04 14 bd bf 11 cb 3b 74 07 0a 3d 86 56 14 3d
       -0.036136795 0.006197184 0.033698514 0.036215328
0002b0 e8 f3 a7 3c 4c 37 26 3d d0 61 20 3e 56 f2 50 3d
       0.020502046 0.04058008 0.15662313 0.05101236
0002c0 0e 20 dd bd e6 8a 07 bd 43 59 3b bd 94 2f 83 3a
       -0.107971296 -0.03309145 -0.045739423 0.0010008686
0002d0 57 1d 97 3d 9f a8 85 bc da 05 fd bc 52 8c a8 3d
       0.07378643 -0.016315756 -0.03088658 0.08229889
0002e0 80 b9 36 3c 31 99 e1 bc 1b f5 a2 bc f4 46 a3 3c
       0.011152625 -0.027538868 -0.019892266 0.019931294
0002f0 c0 a7 cf bb 87 ad 7a bd ed c0 c9 bb 8e 0f 88 3b
       -0.006337136 -0.061200645 -0.0061570317 0.004152245
000300 72 87 61 bd be 31 21 bd 9a 03 02 bd 4b 60 21 bd
       -0.05506081 -0.03935408 -0.031741716 -0.039398473
000310 d8 a4 73 3c b6 dd 78 3e 8b 2d 3a 3d ed 53 74 3d
       0.014870845 0.24303326 0.04545359 0.05965035
000320 39 b1 f4 b8 8c 49 81 38 03 ee a6 b8 4a e9 92 39
       -0.00011667837 6.1648985e-05 -7.95983e-05 0.00028021104
000330 28 b9 51 bb b2 43 e6 3c 3c f9 5b b9 37 87 92 3d
       -0.003200123 0.028108452 -0.00020978315 0.071546964
000340 eb e3 bb 39 a6 7c ac 38 d0 ba 3a ba 5a 41 17 bc
       0.00035837232 8.224817e-05 -0.0007123174 -0.00923189
000350 79 0d 97 3a a8 02 32 3b 32 dc 0f bb 71 ce c2 39
       0.0011524401 0.0027162228 -0.0021951315 0.00037156374
000360 e6 86 1b 3e 0b 28 5b bb 3b 7d 28 3b d8 f8 8e b9
       0.15188178 -0.0033440616 0.0025709409 -0.00027269754
000370 39 e2 7a bd ea a8 56 bd 4d 1d 38 3b 0b 2a 41 3d
       -0.0612509 -0.052407183 0.0028093637 0.047159236
000380 de 71 60 ba 9d 59 ff bc 98 53 1b 3e cc 4f de 3a
       -0.00085618894 -0.03117066 0.15168607 0.0016961037
000390 01 3a c6 ba 95 f9 dd 3a dd 8d 2a 3d ec 0b b4 ba
       -0.0015123488 0.0016935343 0.041639198 -0.0013736463
0003a0 fc 2f 51 bd 39 a3 3c bd 38 b3 50 3d 5f 3c a9 ba
       -0.051071152 -0.0460541 0.050952166 -0.0012911669
0003b0 42 38 71 ba 30 bf 58 3a 74 42 db bc 5b 63 9e 3d
       -0.00092018035 0.0008268235 -0.026765086 0.07733794
0003c0 70 d5 29 3b e9 b3 51 3a 93 40 6d 3b 2c 38 ee b9
       0.0025914572 0.0007999526 0.003620182 -0.0004543675
0003d0 c8 11 11 3c 52 23 13 3d a1 29 31 3c 8a 40 b4 bb
       0.008854337 0.035922356 0.010813148 -0.0055008577
0003e0 86 31 d2 3a 25 20 08 bd 44 97 c2 3c 76 5f 94 bd
       0.0016036488 -0.03323378 0.02375377 -0.0724477
0003f0 8d 46 b7 bc 17 fd 53 bc 50 9a 1e bd 85 f7 0d bd
       -0.022372508 -0.012938759 -0.038721383 -0.03465988

fc4.bias f4 [64]
000000 e6 58 d4 3f e9 a6 97 3f 64 17 03 c0 ac c9 09 c0
       1.658963 1.1847812 -2.0483027 -2.152934
000010 34 31 f2 3f 5e 0a 13 c0 8d 58 f6 bf ad 50 c9 3f
       1.8921266 -2.2975078 -1.9245774 1.5727745
000020 b0 ca ef 3f 88 bf 13 c0 40 47 e7 bc 52 ae 0a c0
       1.873373 -2.3085651 -0.028232217 -2.1668897
000030 29 5f 12 c0 37 e2 05 c0 2a dc 39 c0 ae e6 ac 3f
       -2.287058 -2.091932 -2.9040627 1.3507898
000040 6d 6b 0b c0 d9 71 a7 3f 48 29 15 c0 23 9a 03 40
       -2.1784317 1.3081619 -2.3306446 2.0562828
000050 b2 a5 18 c0 42 09 04 c0 2e 35 b4 3f e4 a2 01 3f
       -2.3851132 -2.063065 1.4078729 0.50639176
000060 74 22 9c 3f 0c 09 ca 3f ea 0b ba 3f 31 f5 03 c0
       1.2198014 1.5784011 1.4534886 -2.0618403
000070 bf ec f6 bf b9 44 0c c0 ec c6 11 c0 39 03 0d c0
       -1.9290999 -2.1916945 -2.2777662 -2.2033217
000080 a8 68 09 40 ec a7 09 40 70 bb 1c c0 2a 6d 28 c0
       2.1470127 2.1508741 -2.4489403 -2.6316628
000090 ae 73 81 3f ef 4e 1c c0 a6 83 24 c0 4e 73 18 c0
       1.0113428 -2.4423177 -2.5705352 -2.3820376
0000a0 0f ee 0e c0 6e 6d d1 3f cf 8e 0e c0 4f 0d 0e c0
       -2.23328 1.636152 -2.2274663 -2.2195623
0000b0 04 2e d8 3f fd 10 15 c0 d8 4a cd bf 09 55 05 c0
       1.6889043 -2.329162 -1.6038465 -2.0833151
0000c0 a7 90 33 c0 d0 16 0a c0 35 b3 15 c0 77 36 10 c0
       -2.8057039 -2.1576424 -2.339063 -2.2533243
0000d0 ec 66 f5 bf 7e 64 01 40 64 cc 1b c0 8b c3 15 c0
       -1.9172034 2.0217586 -2.43435 -2.34006
0000e0 34 ae 07 c0 64 cd 03 c0 d0 2b ef 3e fa af e6 bf
       -2.1200075 -2.059411 0.46713114 -1.8022454
0000f0 1c e2 ed 3f 05 97 06 c0 2b d7 13 c0 b1 82 d6 3f
       1.8584628 -2.1029675 -2.3100078 1.6758634
